{
  "layers" : [
    {
      "name" : "generator\/G_MODEL\/A\/MirrorPad:0",
      "weights" : {

      },
      "pad_pad_mode" : 0,
      "pad_t" : 3,
      "pad_r" : 3,
      "pad_b" : 3,
      "type" : "general_padding",
      "pad_fill_mode" : 2,
      "bottom" : "test__0",
      "pad_l" : 3,
      "debug_info" : "generator\/G_MODEL\/A\/MirrorPad:0",
      "pad_value" : 0,
      "top" : "generator\/G_MODEL\/A\/MirrorPad:0"
    },
    {
      "pad_r" : 0,
      "fused_relu" : 0,
      "fused_tanh" : 0,
      "debug_info" : "generator\/G_MODEL\/A\/Conv\/Conv2D:0",
      "pad_fill_mode" : 0,
      "pad_b" : 0,
      "pad_l" : 0,
      "top" : "generator\/G_MODEL\/A\/Conv\/Conv2D:0",
      "blob_weights" : 1,
      "K" : 3,
      "name" : "generator\/G_MODEL\/A\/Conv\/Conv2D:0",
      "has_batch_norm" : 0,
      "type" : "convolution",
      "n_groups" : 1,
      "pad_t" : 0,
      "has_biases" : 0,
      "C" : 32,
      "bottom" : "generator\/G_MODEL\/A\/MirrorPad:0",
      "weights" : {

      },
      "Nx" : 7,
      "pad_mode" : 0,
      "pad_value" : 0,
      "Ny" : 7,
      "n_parallel" : 1
    },
    {
      "bottom" : "generator\/G_MODEL\/A\/Conv\/Conv2D:0",
      "weights" : {

      },
      "mode" : 1,
      "debug_info" : "generator\/G_MODEL\/A\/LayerNorm\/moments\/mean:0",
      "use_version" : 1,
      "top" : "generator\/G_MODEL\/A\/LayerNorm\/moments\/mean:0",
      "type" : "reduce",
      "name" : "generator\/G_MODEL\/A\/LayerNorm\/moments\/mean:0"
    },
    {
      "alpha" : -1,
      "bottom" : "generator\/G_MODEL\/A\/LayerNorm\/moments\/mean:0",
      "weights" : {

      },
      "mode" : 6,
      "debug_info" : "negated_generator\/G_MODEL\/A\/LayerNorm\/moments\/StopGradient:0_generator\/G_MODEL\/A\/LayerNorm\/moments\/SquaredDifference:0_difference",
      "top" : "negated_generator\/G_MODEL\/A\/LayerNorm\/moments\/StopGradient:0_generator\/G_MODEL\/A\/LayerNorm\/moments\/SquaredDifference:0_difference",
      "type" : "activation",
      "name" : "negated_generator\/G_MODEL\/A\/LayerNorm\/moments\/StopGradient:0_generator\/G_MODEL\/A\/LayerNorm\/moments\/SquaredDifference:0_difference",
      "beta" : 0
    },
    {
      "bottom" : "generator\/G_MODEL\/A\/Conv\/Conv2D:0,negated_generator\/G_MODEL\/A\/LayerNorm\/moments\/StopGradient:0_generator\/G_MODEL\/A\/LayerNorm\/moments\/SquaredDifference:0_difference",
      "alpha" : 1,
      "operation" : 0,
      "weights" : {

      },
      "fused_relu" : 0,
      "debug_info" : "generator\/G_MODEL\/A\/LayerNorm\/moments\/SquaredDifference:0_difference",
      "top" : "generator\/G_MODEL\/A\/LayerNorm\/moments\/SquaredDifference:0_difference",
      "type" : "elementwise",
      "name" : "generator\/G_MODEL\/A\/LayerNorm\/moments\/SquaredDifference:0_difference",
      "beta" : 0
    },
    {
      "bottom" : "generator\/G_MODEL\/A\/LayerNorm\/moments\/SquaredDifference:0_difference,generator\/G_MODEL\/A\/LayerNorm\/moments\/SquaredDifference:0_difference",
      "alpha" : 1,
      "operation" : 1,
      "weights" : {

      },
      "fused_relu" : 0,
      "debug_info" : "generator\/G_MODEL\/A\/LayerNorm\/moments\/SquaredDifference:0",
      "top" : "generator\/G_MODEL\/A\/LayerNorm\/moments\/SquaredDifference:0",
      "type" : "elementwise",
      "name" : "generator\/G_MODEL\/A\/LayerNorm\/moments\/SquaredDifference:0",
      "beta" : 0
    },
    {
      "bottom" : "generator\/G_MODEL\/A\/LayerNorm\/moments\/SquaredDifference:0",
      "weights" : {

      },
      "mode" : 1,
      "debug_info" : "generator\/G_MODEL\/A\/LayerNorm\/moments\/variance:0",
      "use_version" : 1,
      "top" : "generator\/G_MODEL\/A\/LayerNorm\/moments\/variance:0",
      "type" : "reduce",
      "name" : "generator\/G_MODEL\/A\/LayerNorm\/moments\/variance:0"
    },
    {
      "bottom" : "generator\/G_MODEL\/A\/LayerNorm\/moments\/variance:0",
      "alpha" : 9.999999960041972e-13,
      "operation" : 0,
      "weights" : {

      },
      "fused_relu" : 0,
      "debug_info" : "generator\/G_MODEL\/A\/LayerNorm\/batchnorm\/add:0",
      "top" : "generator\/G_MODEL\/A\/LayerNorm\/batchnorm\/add:0",
      "type" : "elementwise",
      "name" : "generator\/G_MODEL\/A\/LayerNorm\/batchnorm\/add:0",
      "beta" : 0
    },
    {
      "bottom" : "generator\/G_MODEL\/A\/LayerNorm\/batchnorm\/add:0",
      "alpha" : 1,
      "operation" : 12,
      "weights" : {

      },
      "fused_relu" : 0,
      "debug_info" : "generator\/G_MODEL\/A\/LayerNorm\/batchnorm\/Rsqrt:0",
      "top" : "generator\/G_MODEL\/A\/LayerNorm\/batchnorm\/Rsqrt:0",
      "type" : "elementwise",
      "name" : "generator\/G_MODEL\/A\/LayerNorm\/batchnorm\/Rsqrt:0",
      "beta" : 0
    },
    {
      "bottom" : "",
      "k" : 32,
      "n" : 1,
      "weights" : {

      },
      "h" : 1,
      "debug_info" : "generator\/G_MODEL\/A\/LayerNorm\/gamma\/read:0",
      "constant_blob" : 3,
      "top" : "generator\/G_MODEL\/A\/LayerNorm\/gamma\/read:0",
      "w" : 1,
      "type" : "load_constant",
      "name" : "generator\/G_MODEL\/A\/LayerNorm\/gamma\/read:0"
    },
    {
      "bottom" : "generator\/G_MODEL\/A\/LayerNorm\/batchnorm\/Rsqrt:0,generator\/G_MODEL\/A\/LayerNorm\/gamma\/read:0",
      "alpha" : 1,
      "operation" : 1,
      "weights" : {

      },
      "fused_relu" : 0,
      "debug_info" : "generator\/G_MODEL\/A\/LayerNorm\/batchnorm\/mul:0",
      "top" : "generator\/G_MODEL\/A\/LayerNorm\/batchnorm\/mul:0",
      "type" : "elementwise",
      "name" : "generator\/G_MODEL\/A\/LayerNorm\/batchnorm\/mul:0",
      "beta" : 0
    },
    {
      "bottom" : "generator\/G_MODEL\/A\/Conv\/Conv2D:0,generator\/G_MODEL\/A\/LayerNorm\/batchnorm\/mul:0",
      "alpha" : 1,
      "operation" : 1,
      "weights" : {

      },
      "fused_relu" : 0,
      "debug_info" : "generator\/G_MODEL\/A\/LayerNorm\/batchnorm\/mul_1:0",
      "top" : "generator\/G_MODEL\/A\/LayerNorm\/batchnorm\/mul_1:0",
      "type" : "elementwise",
      "name" : "generator\/G_MODEL\/A\/LayerNorm\/batchnorm\/mul_1:0",
      "beta" : 0
    },
    {
      "bottom" : "generator\/G_MODEL\/A\/LayerNorm\/moments\/mean:0,generator\/G_MODEL\/A\/LayerNorm\/batchnorm\/mul:0",
      "alpha" : 1,
      "operation" : 1,
      "weights" : {

      },
      "fused_relu" : 0,
      "debug_info" : "generator\/G_MODEL\/A\/LayerNorm\/batchnorm\/mul_2:0",
      "top" : "generator\/G_MODEL\/A\/LayerNorm\/batchnorm\/mul_2:0",
      "type" : "elementwise",
      "name" : "generator\/G_MODEL\/A\/LayerNorm\/batchnorm\/mul_2:0",
      "beta" : 0
    },
    {
      "bottom" : "",
      "k" : 32,
      "n" : 1,
      "weights" : {

      },
      "h" : 1,
      "debug_info" : "generator\/G_MODEL\/A\/LayerNorm\/beta\/read:0",
      "constant_blob" : 5,
      "top" : "generator\/G_MODEL\/A\/LayerNorm\/beta\/read:0",
      "w" : 1,
      "type" : "load_constant",
      "name" : "generator\/G_MODEL\/A\/LayerNorm\/beta\/read:0"
    },
    {
      "alpha" : -1,
      "bottom" : "generator\/G_MODEL\/A\/LayerNorm\/batchnorm\/mul_2:0",
      "weights" : {

      },
      "mode" : 6,
      "debug_info" : "negated_generator\/G_MODEL\/A\/LayerNorm\/batchnorm\/mul_2:0_generator\/G_MODEL\/A\/LayerNorm\/batchnorm\/sub:0",
      "top" : "negated_generator\/G_MODEL\/A\/LayerNorm\/batchnorm\/mul_2:0_generator\/G_MODEL\/A\/LayerNorm\/batchnorm\/sub:0",
      "type" : "activation",
      "name" : "negated_generator\/G_MODEL\/A\/LayerNorm\/batchnorm\/mul_2:0_generator\/G_MODEL\/A\/LayerNorm\/batchnorm\/sub:0",
      "beta" : 0
    },
    {
      "bottom" : "generator\/G_MODEL\/A\/LayerNorm\/beta\/read:0,negated_generator\/G_MODEL\/A\/LayerNorm\/batchnorm\/mul_2:0_generator\/G_MODEL\/A\/LayerNorm\/batchnorm\/sub:0",
      "alpha" : 1,
      "operation" : 0,
      "weights" : {

      },
      "fused_relu" : 0,
      "debug_info" : "generator\/G_MODEL\/A\/LayerNorm\/batchnorm\/sub:0",
      "top" : "generator\/G_MODEL\/A\/LayerNorm\/batchnorm\/sub:0",
      "type" : "elementwise",
      "name" : "generator\/G_MODEL\/A\/LayerNorm\/batchnorm\/sub:0",
      "beta" : 0
    },
    {
      "bottom" : "generator\/G_MODEL\/A\/LayerNorm\/batchnorm\/mul_1:0,generator\/G_MODEL\/A\/LayerNorm\/batchnorm\/sub:0",
      "alpha" : 1,
      "operation" : 0,
      "weights" : {

      },
      "fused_relu" : 0,
      "debug_info" : "generator\/G_MODEL\/A\/LayerNorm\/batchnorm\/add_1:0",
      "top" : "generator\/G_MODEL\/A\/LayerNorm\/batchnorm\/add_1:0",
      "type" : "elementwise",
      "name" : "generator\/G_MODEL\/A\/LayerNorm\/batchnorm\/add_1:0",
      "beta" : 0
    },
    {
      "bottom" : "generator\/G_MODEL\/A\/LayerNorm\/batchnorm\/add_1:0",
      "alpha" : 0.20000000298023224,
      "operation" : 1,
      "weights" : {

      },
      "fused_relu" : 0,
      "debug_info" : "generator\/G_MODEL\/A\/LeakyRelu\/mul:0",
      "top" : "generator\/G_MODEL\/A\/LeakyRelu\/mul:0",
      "type" : "elementwise",
      "name" : "generator\/G_MODEL\/A\/LeakyRelu\/mul:0",
      "beta" : 0
    },
    {
      "bottom" : "generator\/G_MODEL\/A\/LeakyRelu\/mul:0,generator\/G_MODEL\/A\/LayerNorm\/batchnorm\/add_1:0",
      "alpha" : 1,
      "operation" : 23,
      "weights" : {

      },
      "fused_relu" : 0,
      "debug_info" : "generator\/G_MODEL\/A\/LeakyRelu\/Maximum:0",
      "top" : "generator\/G_MODEL\/A\/LeakyRelu\/Maximum:0",
      "type" : "elementwise",
      "name" : "generator\/G_MODEL\/A\/LeakyRelu\/Maximum:0",
      "beta" : 0
    },
    {
      "name" : "generator\/G_MODEL\/A\/MirrorPad_1:0",
      "weights" : {

      },
      "pad_pad_mode" : 0,
      "pad_t" : 0,
      "pad_r" : 1,
      "pad_b" : 1,
      "type" : "general_padding",
      "pad_fill_mode" : 2,
      "bottom" : "generator\/G_MODEL\/A\/LeakyRelu\/Maximum:0",
      "pad_l" : 0,
      "debug_info" : "generator\/G_MODEL\/A\/MirrorPad_1:0",
      "pad_value" : 0,
      "top" : "generator\/G_MODEL\/A\/MirrorPad_1:0"
    },
    {
      "pad_r" : 0,
      "fused_relu" : 0,
      "fused_tanh" : 0,
      "debug_info" : "generator\/G_MODEL\/A\/Conv_1\/Conv2D:0",
      "pad_fill_mode" : 0,
      "pad_b" : 0,
      "pad_l" : 0,
      "top" : "generator\/G_MODEL\/A\/Conv_1\/Conv2D:0",
      "blob_weights" : 7,
      "K" : 32,
      "stride_x" : 2,
      "name" : "generator\/G_MODEL\/A\/Conv_1\/Conv2D:0",
      "has_batch_norm" : 0,
      "type" : "convolution",
      "n_groups" : 1,
      "pad_t" : 0,
      "stride_y" : 2,
      "has_biases" : 0,
      "C" : 64,
      "bottom" : "generator\/G_MODEL\/A\/MirrorPad_1:0",
      "weights" : {

      },
      "Nx" : 3,
      "pad_mode" : 0,
      "pad_value" : 0,
      "Ny" : 3,
      "n_parallel" : 1
    },
    {
      "bottom" : "generator\/G_MODEL\/A\/Conv_1\/Conv2D:0",
      "weights" : {

      },
      "mode" : 1,
      "debug_info" : "generator\/G_MODEL\/A\/LayerNorm_1\/moments\/mean:0",
      "use_version" : 1,
      "top" : "generator\/G_MODEL\/A\/LayerNorm_1\/moments\/mean:0",
      "type" : "reduce",
      "name" : "generator\/G_MODEL\/A\/LayerNorm_1\/moments\/mean:0"
    },
    {
      "alpha" : -1,
      "bottom" : "generator\/G_MODEL\/A\/LayerNorm_1\/moments\/mean:0",
      "weights" : {

      },
      "mode" : 6,
      "debug_info" : "negated_generator\/G_MODEL\/A\/LayerNorm_1\/moments\/StopGradient:0_generator\/G_MODEL\/A\/LayerNorm_1\/moments\/SquaredDifference:0_difference",
      "top" : "negated_generator\/G_MODEL\/A\/LayerNorm_1\/moments\/StopGradient:0_generator\/G_MODEL\/A\/LayerNorm_1\/moments\/SquaredDifference:0_difference",
      "type" : "activation",
      "name" : "negated_generator\/G_MODEL\/A\/LayerNorm_1\/moments\/StopGradient:0_generator\/G_MODEL\/A\/LayerNorm_1\/moments\/SquaredDifference:0_difference",
      "beta" : 0
    },
    {
      "bottom" : "generator\/G_MODEL\/A\/Conv_1\/Conv2D:0,negated_generator\/G_MODEL\/A\/LayerNorm_1\/moments\/StopGradient:0_generator\/G_MODEL\/A\/LayerNorm_1\/moments\/SquaredDifference:0_difference",
      "alpha" : 1,
      "operation" : 0,
      "weights" : {

      },
      "fused_relu" : 0,
      "debug_info" : "generator\/G_MODEL\/A\/LayerNorm_1\/moments\/SquaredDifference:0_difference",
      "top" : "generator\/G_MODEL\/A\/LayerNorm_1\/moments\/SquaredDifference:0_difference",
      "type" : "elementwise",
      "name" : "generator\/G_MODEL\/A\/LayerNorm_1\/moments\/SquaredDifference:0_difference",
      "beta" : 0
    },
    {
      "bottom" : "generator\/G_MODEL\/A\/LayerNorm_1\/moments\/SquaredDifference:0_difference,generator\/G_MODEL\/A\/LayerNorm_1\/moments\/SquaredDifference:0_difference",
      "alpha" : 1,
      "operation" : 1,
      "weights" : {

      },
      "fused_relu" : 0,
      "debug_info" : "generator\/G_MODEL\/A\/LayerNorm_1\/moments\/SquaredDifference:0",
      "top" : "generator\/G_MODEL\/A\/LayerNorm_1\/moments\/SquaredDifference:0",
      "type" : "elementwise",
      "name" : "generator\/G_MODEL\/A\/LayerNorm_1\/moments\/SquaredDifference:0",
      "beta" : 0
    },
    {
      "bottom" : "generator\/G_MODEL\/A\/LayerNorm_1\/moments\/SquaredDifference:0",
      "weights" : {

      },
      "mode" : 1,
      "debug_info" : "generator\/G_MODEL\/A\/LayerNorm_1\/moments\/variance:0",
      "use_version" : 1,
      "top" : "generator\/G_MODEL\/A\/LayerNorm_1\/moments\/variance:0",
      "type" : "reduce",
      "name" : "generator\/G_MODEL\/A\/LayerNorm_1\/moments\/variance:0"
    },
    {
      "bottom" : "generator\/G_MODEL\/A\/LayerNorm_1\/moments\/variance:0",
      "alpha" : 9.999999960041972e-13,
      "operation" : 0,
      "weights" : {

      },
      "fused_relu" : 0,
      "debug_info" : "generator\/G_MODEL\/A\/LayerNorm_1\/batchnorm\/add:0",
      "top" : "generator\/G_MODEL\/A\/LayerNorm_1\/batchnorm\/add:0",
      "type" : "elementwise",
      "name" : "generator\/G_MODEL\/A\/LayerNorm_1\/batchnorm\/add:0",
      "beta" : 0
    },
    {
      "bottom" : "generator\/G_MODEL\/A\/LayerNorm_1\/batchnorm\/add:0",
      "alpha" : 1,
      "operation" : 12,
      "weights" : {

      },
      "fused_relu" : 0,
      "debug_info" : "generator\/G_MODEL\/A\/LayerNorm_1\/batchnorm\/Rsqrt:0",
      "top" : "generator\/G_MODEL\/A\/LayerNorm_1\/batchnorm\/Rsqrt:0",
      "type" : "elementwise",
      "name" : "generator\/G_MODEL\/A\/LayerNorm_1\/batchnorm\/Rsqrt:0",
      "beta" : 0
    },
    {
      "bottom" : "",
      "k" : 64,
      "n" : 1,
      "weights" : {

      },
      "h" : 1,
      "debug_info" : "generator\/G_MODEL\/A\/LayerNorm_1\/gamma\/read:0",
      "constant_blob" : 9,
      "top" : "generator\/G_MODEL\/A\/LayerNorm_1\/gamma\/read:0",
      "w" : 1,
      "type" : "load_constant",
      "name" : "generator\/G_MODEL\/A\/LayerNorm_1\/gamma\/read:0"
    },
    {
      "bottom" : "generator\/G_MODEL\/A\/LayerNorm_1\/batchnorm\/Rsqrt:0,generator\/G_MODEL\/A\/LayerNorm_1\/gamma\/read:0",
      "alpha" : 1,
      "operation" : 1,
      "weights" : {

      },
      "fused_relu" : 0,
      "debug_info" : "generator\/G_MODEL\/A\/LayerNorm_1\/batchnorm\/mul:0",
      "top" : "generator\/G_MODEL\/A\/LayerNorm_1\/batchnorm\/mul:0",
      "type" : "elementwise",
      "name" : "generator\/G_MODEL\/A\/LayerNorm_1\/batchnorm\/mul:0",
      "beta" : 0
    },
    {
      "bottom" : "generator\/G_MODEL\/A\/Conv_1\/Conv2D:0,generator\/G_MODEL\/A\/LayerNorm_1\/batchnorm\/mul:0",
      "alpha" : 1,
      "operation" : 1,
      "weights" : {

      },
      "fused_relu" : 0,
      "debug_info" : "generator\/G_MODEL\/A\/LayerNorm_1\/batchnorm\/mul_1:0",
      "top" : "generator\/G_MODEL\/A\/LayerNorm_1\/batchnorm\/mul_1:0",
      "type" : "elementwise",
      "name" : "generator\/G_MODEL\/A\/LayerNorm_1\/batchnorm\/mul_1:0",
      "beta" : 0
    },
    {
      "bottom" : "generator\/G_MODEL\/A\/LayerNorm_1\/moments\/mean:0,generator\/G_MODEL\/A\/LayerNorm_1\/batchnorm\/mul:0",
      "alpha" : 1,
      "operation" : 1,
      "weights" : {

      },
      "fused_relu" : 0,
      "debug_info" : "generator\/G_MODEL\/A\/LayerNorm_1\/batchnorm\/mul_2:0",
      "top" : "generator\/G_MODEL\/A\/LayerNorm_1\/batchnorm\/mul_2:0",
      "type" : "elementwise",
      "name" : "generator\/G_MODEL\/A\/LayerNorm_1\/batchnorm\/mul_2:0",
      "beta" : 0
    },
    {
      "bottom" : "",
      "k" : 64,
      "n" : 1,
      "weights" : {

      },
      "h" : 1,
      "debug_info" : "generator\/G_MODEL\/A\/LayerNorm_1\/beta\/read:0",
      "constant_blob" : 11,
      "top" : "generator\/G_MODEL\/A\/LayerNorm_1\/beta\/read:0",
      "w" : 1,
      "type" : "load_constant",
      "name" : "generator\/G_MODEL\/A\/LayerNorm_1\/beta\/read:0"
    },
    {
      "alpha" : -1,
      "bottom" : "generator\/G_MODEL\/A\/LayerNorm_1\/batchnorm\/mul_2:0",
      "weights" : {

      },
      "mode" : 6,
      "debug_info" : "negated_generator\/G_MODEL\/A\/LayerNorm_1\/batchnorm\/mul_2:0_generator\/G_MODEL\/A\/LayerNorm_1\/batchnorm\/sub:0",
      "top" : "negated_generator\/G_MODEL\/A\/LayerNorm_1\/batchnorm\/mul_2:0_generator\/G_MODEL\/A\/LayerNorm_1\/batchnorm\/sub:0",
      "type" : "activation",
      "name" : "negated_generator\/G_MODEL\/A\/LayerNorm_1\/batchnorm\/mul_2:0_generator\/G_MODEL\/A\/LayerNorm_1\/batchnorm\/sub:0",
      "beta" : 0
    },
    {
      "bottom" : "generator\/G_MODEL\/A\/LayerNorm_1\/beta\/read:0,negated_generator\/G_MODEL\/A\/LayerNorm_1\/batchnorm\/mul_2:0_generator\/G_MODEL\/A\/LayerNorm_1\/batchnorm\/sub:0",
      "alpha" : 1,
      "operation" : 0,
      "weights" : {

      },
      "fused_relu" : 0,
      "debug_info" : "generator\/G_MODEL\/A\/LayerNorm_1\/batchnorm\/sub:0",
      "top" : "generator\/G_MODEL\/A\/LayerNorm_1\/batchnorm\/sub:0",
      "type" : "elementwise",
      "name" : "generator\/G_MODEL\/A\/LayerNorm_1\/batchnorm\/sub:0",
      "beta" : 0
    },
    {
      "bottom" : "generator\/G_MODEL\/A\/LayerNorm_1\/batchnorm\/mul_1:0,generator\/G_MODEL\/A\/LayerNorm_1\/batchnorm\/sub:0",
      "alpha" : 1,
      "operation" : 0,
      "weights" : {

      },
      "fused_relu" : 0,
      "debug_info" : "generator\/G_MODEL\/A\/LayerNorm_1\/batchnorm\/add_1:0",
      "top" : "generator\/G_MODEL\/A\/LayerNorm_1\/batchnorm\/add_1:0",
      "type" : "elementwise",
      "name" : "generator\/G_MODEL\/A\/LayerNorm_1\/batchnorm\/add_1:0",
      "beta" : 0
    },
    {
      "bottom" : "generator\/G_MODEL\/A\/LayerNorm_1\/batchnorm\/add_1:0",
      "alpha" : 0.20000000298023224,
      "operation" : 1,
      "weights" : {

      },
      "fused_relu" : 0,
      "debug_info" : "generator\/G_MODEL\/A\/LeakyRelu_1\/mul:0",
      "top" : "generator\/G_MODEL\/A\/LeakyRelu_1\/mul:0",
      "type" : "elementwise",
      "name" : "generator\/G_MODEL\/A\/LeakyRelu_1\/mul:0",
      "beta" : 0
    },
    {
      "bottom" : "generator\/G_MODEL\/A\/LeakyRelu_1\/mul:0,generator\/G_MODEL\/A\/LayerNorm_1\/batchnorm\/add_1:0",
      "alpha" : 1,
      "operation" : 23,
      "weights" : {

      },
      "fused_relu" : 0,
      "debug_info" : "generator\/G_MODEL\/A\/LeakyRelu_1\/Maximum:0",
      "top" : "generator\/G_MODEL\/A\/LeakyRelu_1\/Maximum:0",
      "type" : "elementwise",
      "name" : "generator\/G_MODEL\/A\/LeakyRelu_1\/Maximum:0",
      "beta" : 0
    },
    {
      "name" : "generator\/G_MODEL\/A\/MirrorPad_2:0",
      "weights" : {

      },
      "pad_pad_mode" : 0,
      "pad_t" : 1,
      "pad_r" : 1,
      "pad_b" : 1,
      "type" : "general_padding",
      "pad_fill_mode" : 2,
      "bottom" : "generator\/G_MODEL\/A\/LeakyRelu_1\/Maximum:0",
      "pad_l" : 1,
      "debug_info" : "generator\/G_MODEL\/A\/MirrorPad_2:0",
      "pad_value" : 0,
      "top" : "generator\/G_MODEL\/A\/MirrorPad_2:0"
    },
    {
      "pad_r" : 0,
      "fused_relu" : 0,
      "fused_tanh" : 0,
      "debug_info" : "generator\/G_MODEL\/A\/Conv_2\/Conv2D:0",
      "pad_fill_mode" : 0,
      "pad_b" : 0,
      "pad_l" : 0,
      "top" : "generator\/G_MODEL\/A\/Conv_2\/Conv2D:0",
      "blob_weights" : 13,
      "K" : 64,
      "name" : "generator\/G_MODEL\/A\/Conv_2\/Conv2D:0",
      "has_batch_norm" : 0,
      "type" : "convolution",
      "n_groups" : 1,
      "pad_t" : 0,
      "has_biases" : 0,
      "C" : 64,
      "bottom" : "generator\/G_MODEL\/A\/MirrorPad_2:0",
      "weights" : {

      },
      "Nx" : 3,
      "pad_mode" : 0,
      "pad_value" : 0,
      "Ny" : 3,
      "n_parallel" : 1
    },
    {
      "bottom" : "generator\/G_MODEL\/A\/Conv_2\/Conv2D:0",
      "weights" : {

      },
      "mode" : 1,
      "debug_info" : "generator\/G_MODEL\/A\/LayerNorm_2\/moments\/mean:0",
      "use_version" : 1,
      "top" : "generator\/G_MODEL\/A\/LayerNorm_2\/moments\/mean:0",
      "type" : "reduce",
      "name" : "generator\/G_MODEL\/A\/LayerNorm_2\/moments\/mean:0"
    },
    {
      "alpha" : -1,
      "bottom" : "generator\/G_MODEL\/A\/LayerNorm_2\/moments\/mean:0",
      "weights" : {

      },
      "mode" : 6,
      "debug_info" : "negated_generator\/G_MODEL\/A\/LayerNorm_2\/moments\/StopGradient:0_generator\/G_MODEL\/A\/LayerNorm_2\/moments\/SquaredDifference:0_difference",
      "top" : "negated_generator\/G_MODEL\/A\/LayerNorm_2\/moments\/StopGradient:0_generator\/G_MODEL\/A\/LayerNorm_2\/moments\/SquaredDifference:0_difference",
      "type" : "activation",
      "name" : "negated_generator\/G_MODEL\/A\/LayerNorm_2\/moments\/StopGradient:0_generator\/G_MODEL\/A\/LayerNorm_2\/moments\/SquaredDifference:0_difference",
      "beta" : 0
    },
    {
      "bottom" : "generator\/G_MODEL\/A\/Conv_2\/Conv2D:0,negated_generator\/G_MODEL\/A\/LayerNorm_2\/moments\/StopGradient:0_generator\/G_MODEL\/A\/LayerNorm_2\/moments\/SquaredDifference:0_difference",
      "alpha" : 1,
      "operation" : 0,
      "weights" : {

      },
      "fused_relu" : 0,
      "debug_info" : "generator\/G_MODEL\/A\/LayerNorm_2\/moments\/SquaredDifference:0_difference",
      "top" : "generator\/G_MODEL\/A\/LayerNorm_2\/moments\/SquaredDifference:0_difference",
      "type" : "elementwise",
      "name" : "generator\/G_MODEL\/A\/LayerNorm_2\/moments\/SquaredDifference:0_difference",
      "beta" : 0
    },
    {
      "bottom" : "generator\/G_MODEL\/A\/LayerNorm_2\/moments\/SquaredDifference:0_difference,generator\/G_MODEL\/A\/LayerNorm_2\/moments\/SquaredDifference:0_difference",
      "alpha" : 1,
      "operation" : 1,
      "weights" : {

      },
      "fused_relu" : 0,
      "debug_info" : "generator\/G_MODEL\/A\/LayerNorm_2\/moments\/SquaredDifference:0",
      "top" : "generator\/G_MODEL\/A\/LayerNorm_2\/moments\/SquaredDifference:0",
      "type" : "elementwise",
      "name" : "generator\/G_MODEL\/A\/LayerNorm_2\/moments\/SquaredDifference:0",
      "beta" : 0
    },
    {
      "bottom" : "generator\/G_MODEL\/A\/LayerNorm_2\/moments\/SquaredDifference:0",
      "weights" : {

      },
      "mode" : 1,
      "debug_info" : "generator\/G_MODEL\/A\/LayerNorm_2\/moments\/variance:0",
      "use_version" : 1,
      "top" : "generator\/G_MODEL\/A\/LayerNorm_2\/moments\/variance:0",
      "type" : "reduce",
      "name" : "generator\/G_MODEL\/A\/LayerNorm_2\/moments\/variance:0"
    },
    {
      "bottom" : "generator\/G_MODEL\/A\/LayerNorm_2\/moments\/variance:0",
      "alpha" : 9.999999960041972e-13,
      "operation" : 0,
      "weights" : {

      },
      "fused_relu" : 0,
      "debug_info" : "generator\/G_MODEL\/A\/LayerNorm_2\/batchnorm\/add:0",
      "top" : "generator\/G_MODEL\/A\/LayerNorm_2\/batchnorm\/add:0",
      "type" : "elementwise",
      "name" : "generator\/G_MODEL\/A\/LayerNorm_2\/batchnorm\/add:0",
      "beta" : 0
    },
    {
      "bottom" : "generator\/G_MODEL\/A\/LayerNorm_2\/batchnorm\/add:0",
      "alpha" : 1,
      "operation" : 12,
      "weights" : {

      },
      "fused_relu" : 0,
      "debug_info" : "generator\/G_MODEL\/A\/LayerNorm_2\/batchnorm\/Rsqrt:0",
      "top" : "generator\/G_MODEL\/A\/LayerNorm_2\/batchnorm\/Rsqrt:0",
      "type" : "elementwise",
      "name" : "generator\/G_MODEL\/A\/LayerNorm_2\/batchnorm\/Rsqrt:0",
      "beta" : 0
    },
    {
      "bottom" : "",
      "k" : 64,
      "n" : 1,
      "weights" : {

      },
      "h" : 1,
      "debug_info" : "generator\/G_MODEL\/A\/LayerNorm_2\/gamma\/read:0",
      "constant_blob" : 15,
      "top" : "generator\/G_MODEL\/A\/LayerNorm_2\/gamma\/read:0",
      "w" : 1,
      "type" : "load_constant",
      "name" : "generator\/G_MODEL\/A\/LayerNorm_2\/gamma\/read:0"
    },
    {
      "bottom" : "generator\/G_MODEL\/A\/LayerNorm_2\/batchnorm\/Rsqrt:0,generator\/G_MODEL\/A\/LayerNorm_2\/gamma\/read:0",
      "alpha" : 1,
      "operation" : 1,
      "weights" : {

      },
      "fused_relu" : 0,
      "debug_info" : "generator\/G_MODEL\/A\/LayerNorm_2\/batchnorm\/mul:0",
      "top" : "generator\/G_MODEL\/A\/LayerNorm_2\/batchnorm\/mul:0",
      "type" : "elementwise",
      "name" : "generator\/G_MODEL\/A\/LayerNorm_2\/batchnorm\/mul:0",
      "beta" : 0
    },
    {
      "bottom" : "generator\/G_MODEL\/A\/Conv_2\/Conv2D:0,generator\/G_MODEL\/A\/LayerNorm_2\/batchnorm\/mul:0",
      "alpha" : 1,
      "operation" : 1,
      "weights" : {

      },
      "fused_relu" : 0,
      "debug_info" : "generator\/G_MODEL\/A\/LayerNorm_2\/batchnorm\/mul_1:0",
      "top" : "generator\/G_MODEL\/A\/LayerNorm_2\/batchnorm\/mul_1:0",
      "type" : "elementwise",
      "name" : "generator\/G_MODEL\/A\/LayerNorm_2\/batchnorm\/mul_1:0",
      "beta" : 0
    },
    {
      "bottom" : "generator\/G_MODEL\/A\/LayerNorm_2\/moments\/mean:0,generator\/G_MODEL\/A\/LayerNorm_2\/batchnorm\/mul:0",
      "alpha" : 1,
      "operation" : 1,
      "weights" : {

      },
      "fused_relu" : 0,
      "debug_info" : "generator\/G_MODEL\/A\/LayerNorm_2\/batchnorm\/mul_2:0",
      "top" : "generator\/G_MODEL\/A\/LayerNorm_2\/batchnorm\/mul_2:0",
      "type" : "elementwise",
      "name" : "generator\/G_MODEL\/A\/LayerNorm_2\/batchnorm\/mul_2:0",
      "beta" : 0
    },
    {
      "bottom" : "",
      "k" : 64,
      "n" : 1,
      "weights" : {

      },
      "h" : 1,
      "debug_info" : "generator\/G_MODEL\/A\/LayerNorm_2\/beta\/read:0",
      "constant_blob" : 17,
      "top" : "generator\/G_MODEL\/A\/LayerNorm_2\/beta\/read:0",
      "w" : 1,
      "type" : "load_constant",
      "name" : "generator\/G_MODEL\/A\/LayerNorm_2\/beta\/read:0"
    },
    {
      "alpha" : -1,
      "bottom" : "generator\/G_MODEL\/A\/LayerNorm_2\/batchnorm\/mul_2:0",
      "weights" : {

      },
      "mode" : 6,
      "debug_info" : "negated_generator\/G_MODEL\/A\/LayerNorm_2\/batchnorm\/mul_2:0_generator\/G_MODEL\/A\/LayerNorm_2\/batchnorm\/sub:0",
      "top" : "negated_generator\/G_MODEL\/A\/LayerNorm_2\/batchnorm\/mul_2:0_generator\/G_MODEL\/A\/LayerNorm_2\/batchnorm\/sub:0",
      "type" : "activation",
      "name" : "negated_generator\/G_MODEL\/A\/LayerNorm_2\/batchnorm\/mul_2:0_generator\/G_MODEL\/A\/LayerNorm_2\/batchnorm\/sub:0",
      "beta" : 0
    },
    {
      "bottom" : "generator\/G_MODEL\/A\/LayerNorm_2\/beta\/read:0,negated_generator\/G_MODEL\/A\/LayerNorm_2\/batchnorm\/mul_2:0_generator\/G_MODEL\/A\/LayerNorm_2\/batchnorm\/sub:0",
      "alpha" : 1,
      "operation" : 0,
      "weights" : {

      },
      "fused_relu" : 0,
      "debug_info" : "generator\/G_MODEL\/A\/LayerNorm_2\/batchnorm\/sub:0",
      "top" : "generator\/G_MODEL\/A\/LayerNorm_2\/batchnorm\/sub:0",
      "type" : "elementwise",
      "name" : "generator\/G_MODEL\/A\/LayerNorm_2\/batchnorm\/sub:0",
      "beta" : 0
    },
    {
      "bottom" : "generator\/G_MODEL\/A\/LayerNorm_2\/batchnorm\/mul_1:0,generator\/G_MODEL\/A\/LayerNorm_2\/batchnorm\/sub:0",
      "alpha" : 1,
      "operation" : 0,
      "weights" : {

      },
      "fused_relu" : 0,
      "debug_info" : "generator\/G_MODEL\/A\/LayerNorm_2\/batchnorm\/add_1:0",
      "top" : "generator\/G_MODEL\/A\/LayerNorm_2\/batchnorm\/add_1:0",
      "type" : "elementwise",
      "name" : "generator\/G_MODEL\/A\/LayerNorm_2\/batchnorm\/add_1:0",
      "beta" : 0
    },
    {
      "bottom" : "generator\/G_MODEL\/A\/LayerNorm_2\/batchnorm\/add_1:0",
      "alpha" : 0.20000000298023224,
      "operation" : 1,
      "weights" : {

      },
      "fused_relu" : 0,
      "debug_info" : "generator\/G_MODEL\/A\/LeakyRelu_2\/mul:0",
      "top" : "generator\/G_MODEL\/A\/LeakyRelu_2\/mul:0",
      "type" : "elementwise",
      "name" : "generator\/G_MODEL\/A\/LeakyRelu_2\/mul:0",
      "beta" : 0
    },
    {
      "bottom" : "generator\/G_MODEL\/A\/LeakyRelu_2\/mul:0,generator\/G_MODEL\/A\/LayerNorm_2\/batchnorm\/add_1:0",
      "alpha" : 1,
      "operation" : 23,
      "weights" : {

      },
      "fused_relu" : 0,
      "debug_info" : "generator\/G_MODEL\/A\/LeakyRelu_2\/Maximum:0",
      "top" : "generator\/G_MODEL\/A\/LeakyRelu_2\/Maximum:0",
      "type" : "elementwise",
      "name" : "generator\/G_MODEL\/A\/LeakyRelu_2\/Maximum:0",
      "beta" : 0
    },
    {
      "name" : "generator\/G_MODEL\/B\/MirrorPad:0",
      "weights" : {

      },
      "pad_pad_mode" : 0,
      "pad_t" : 0,
      "pad_r" : 1,
      "pad_b" : 1,
      "type" : "general_padding",
      "pad_fill_mode" : 2,
      "bottom" : "generator\/G_MODEL\/A\/LeakyRelu_2\/Maximum:0",
      "pad_l" : 0,
      "debug_info" : "generator\/G_MODEL\/B\/MirrorPad:0",
      "pad_value" : 0,
      "top" : "generator\/G_MODEL\/B\/MirrorPad:0"
    },
    {
      "pad_r" : 0,
      "fused_relu" : 0,
      "fused_tanh" : 0,
      "debug_info" : "generator\/G_MODEL\/B\/Conv\/Conv2D:0",
      "pad_fill_mode" : 0,
      "pad_b" : 0,
      "pad_l" : 0,
      "top" : "generator\/G_MODEL\/B\/Conv\/Conv2D:0",
      "blob_weights" : 19,
      "K" : 64,
      "stride_x" : 2,
      "name" : "generator\/G_MODEL\/B\/Conv\/Conv2D:0",
      "has_batch_norm" : 0,
      "type" : "convolution",
      "n_groups" : 1,
      "pad_t" : 0,
      "stride_y" : 2,
      "has_biases" : 0,
      "C" : 128,
      "bottom" : "generator\/G_MODEL\/B\/MirrorPad:0",
      "weights" : {

      },
      "Nx" : 3,
      "pad_mode" : 0,
      "pad_value" : 0,
      "Ny" : 3,
      "n_parallel" : 1
    },
    {
      "bottom" : "generator\/G_MODEL\/B\/Conv\/Conv2D:0",
      "weights" : {

      },
      "mode" : 1,
      "debug_info" : "generator\/G_MODEL\/B\/LayerNorm\/moments\/mean:0",
      "use_version" : 1,
      "top" : "generator\/G_MODEL\/B\/LayerNorm\/moments\/mean:0",
      "type" : "reduce",
      "name" : "generator\/G_MODEL\/B\/LayerNorm\/moments\/mean:0"
    },
    {
      "alpha" : -1,
      "bottom" : "generator\/G_MODEL\/B\/LayerNorm\/moments\/mean:0",
      "weights" : {

      },
      "mode" : 6,
      "debug_info" : "negated_generator\/G_MODEL\/B\/LayerNorm\/moments\/StopGradient:0_generator\/G_MODEL\/B\/LayerNorm\/moments\/SquaredDifference:0_difference",
      "top" : "negated_generator\/G_MODEL\/B\/LayerNorm\/moments\/StopGradient:0_generator\/G_MODEL\/B\/LayerNorm\/moments\/SquaredDifference:0_difference",
      "type" : "activation",
      "name" : "negated_generator\/G_MODEL\/B\/LayerNorm\/moments\/StopGradient:0_generator\/G_MODEL\/B\/LayerNorm\/moments\/SquaredDifference:0_difference",
      "beta" : 0
    },
    {
      "bottom" : "generator\/G_MODEL\/B\/Conv\/Conv2D:0,negated_generator\/G_MODEL\/B\/LayerNorm\/moments\/StopGradient:0_generator\/G_MODEL\/B\/LayerNorm\/moments\/SquaredDifference:0_difference",
      "alpha" : 1,
      "operation" : 0,
      "weights" : {

      },
      "fused_relu" : 0,
      "debug_info" : "generator\/G_MODEL\/B\/LayerNorm\/moments\/SquaredDifference:0_difference",
      "top" : "generator\/G_MODEL\/B\/LayerNorm\/moments\/SquaredDifference:0_difference",
      "type" : "elementwise",
      "name" : "generator\/G_MODEL\/B\/LayerNorm\/moments\/SquaredDifference:0_difference",
      "beta" : 0
    },
    {
      "bottom" : "generator\/G_MODEL\/B\/LayerNorm\/moments\/SquaredDifference:0_difference,generator\/G_MODEL\/B\/LayerNorm\/moments\/SquaredDifference:0_difference",
      "alpha" : 1,
      "operation" : 1,
      "weights" : {

      },
      "fused_relu" : 0,
      "debug_info" : "generator\/G_MODEL\/B\/LayerNorm\/moments\/SquaredDifference:0",
      "top" : "generator\/G_MODEL\/B\/LayerNorm\/moments\/SquaredDifference:0",
      "type" : "elementwise",
      "name" : "generator\/G_MODEL\/B\/LayerNorm\/moments\/SquaredDifference:0",
      "beta" : 0
    },
    {
      "bottom" : "generator\/G_MODEL\/B\/LayerNorm\/moments\/SquaredDifference:0",
      "weights" : {

      },
      "mode" : 1,
      "debug_info" : "generator\/G_MODEL\/B\/LayerNorm\/moments\/variance:0",
      "use_version" : 1,
      "top" : "generator\/G_MODEL\/B\/LayerNorm\/moments\/variance:0",
      "type" : "reduce",
      "name" : "generator\/G_MODEL\/B\/LayerNorm\/moments\/variance:0"
    },
    {
      "bottom" : "generator\/G_MODEL\/B\/LayerNorm\/moments\/variance:0",
      "alpha" : 9.999999960041972e-13,
      "operation" : 0,
      "weights" : {

      },
      "fused_relu" : 0,
      "debug_info" : "generator\/G_MODEL\/B\/LayerNorm\/batchnorm\/add:0",
      "top" : "generator\/G_MODEL\/B\/LayerNorm\/batchnorm\/add:0",
      "type" : "elementwise",
      "name" : "generator\/G_MODEL\/B\/LayerNorm\/batchnorm\/add:0",
      "beta" : 0
    },
    {
      "bottom" : "generator\/G_MODEL\/B\/LayerNorm\/batchnorm\/add:0",
      "alpha" : 1,
      "operation" : 12,
      "weights" : {

      },
      "fused_relu" : 0,
      "debug_info" : "generator\/G_MODEL\/B\/LayerNorm\/batchnorm\/Rsqrt:0",
      "top" : "generator\/G_MODEL\/B\/LayerNorm\/batchnorm\/Rsqrt:0",
      "type" : "elementwise",
      "name" : "generator\/G_MODEL\/B\/LayerNorm\/batchnorm\/Rsqrt:0",
      "beta" : 0
    },
    {
      "bottom" : "",
      "k" : 128,
      "n" : 1,
      "weights" : {

      },
      "h" : 1,
      "debug_info" : "generator\/G_MODEL\/B\/LayerNorm\/gamma\/read:0",
      "constant_blob" : 21,
      "top" : "generator\/G_MODEL\/B\/LayerNorm\/gamma\/read:0",
      "w" : 1,
      "type" : "load_constant",
      "name" : "generator\/G_MODEL\/B\/LayerNorm\/gamma\/read:0"
    },
    {
      "bottom" : "generator\/G_MODEL\/B\/LayerNorm\/batchnorm\/Rsqrt:0,generator\/G_MODEL\/B\/LayerNorm\/gamma\/read:0",
      "alpha" : 1,
      "operation" : 1,
      "weights" : {

      },
      "fused_relu" : 0,
      "debug_info" : "generator\/G_MODEL\/B\/LayerNorm\/batchnorm\/mul:0",
      "top" : "generator\/G_MODEL\/B\/LayerNorm\/batchnorm\/mul:0",
      "type" : "elementwise",
      "name" : "generator\/G_MODEL\/B\/LayerNorm\/batchnorm\/mul:0",
      "beta" : 0
    },
    {
      "bottom" : "generator\/G_MODEL\/B\/Conv\/Conv2D:0,generator\/G_MODEL\/B\/LayerNorm\/batchnorm\/mul:0",
      "alpha" : 1,
      "operation" : 1,
      "weights" : {

      },
      "fused_relu" : 0,
      "debug_info" : "generator\/G_MODEL\/B\/LayerNorm\/batchnorm\/mul_1:0",
      "top" : "generator\/G_MODEL\/B\/LayerNorm\/batchnorm\/mul_1:0",
      "type" : "elementwise",
      "name" : "generator\/G_MODEL\/B\/LayerNorm\/batchnorm\/mul_1:0",
      "beta" : 0
    },
    {
      "bottom" : "generator\/G_MODEL\/B\/LayerNorm\/moments\/mean:0,generator\/G_MODEL\/B\/LayerNorm\/batchnorm\/mul:0",
      "alpha" : 1,
      "operation" : 1,
      "weights" : {

      },
      "fused_relu" : 0,
      "debug_info" : "generator\/G_MODEL\/B\/LayerNorm\/batchnorm\/mul_2:0",
      "top" : "generator\/G_MODEL\/B\/LayerNorm\/batchnorm\/mul_2:0",
      "type" : "elementwise",
      "name" : "generator\/G_MODEL\/B\/LayerNorm\/batchnorm\/mul_2:0",
      "beta" : 0
    },
    {
      "bottom" : "",
      "k" : 128,
      "n" : 1,
      "weights" : {

      },
      "h" : 1,
      "debug_info" : "generator\/G_MODEL\/B\/LayerNorm\/beta\/read:0",
      "constant_blob" : 23,
      "top" : "generator\/G_MODEL\/B\/LayerNorm\/beta\/read:0",
      "w" : 1,
      "type" : "load_constant",
      "name" : "generator\/G_MODEL\/B\/LayerNorm\/beta\/read:0"
    },
    {
      "alpha" : -1,
      "bottom" : "generator\/G_MODEL\/B\/LayerNorm\/batchnorm\/mul_2:0",
      "weights" : {

      },
      "mode" : 6,
      "debug_info" : "negated_generator\/G_MODEL\/B\/LayerNorm\/batchnorm\/mul_2:0_generator\/G_MODEL\/B\/LayerNorm\/batchnorm\/sub:0",
      "top" : "negated_generator\/G_MODEL\/B\/LayerNorm\/batchnorm\/mul_2:0_generator\/G_MODEL\/B\/LayerNorm\/batchnorm\/sub:0",
      "type" : "activation",
      "name" : "negated_generator\/G_MODEL\/B\/LayerNorm\/batchnorm\/mul_2:0_generator\/G_MODEL\/B\/LayerNorm\/batchnorm\/sub:0",
      "beta" : 0
    },
    {
      "bottom" : "generator\/G_MODEL\/B\/LayerNorm\/beta\/read:0,negated_generator\/G_MODEL\/B\/LayerNorm\/batchnorm\/mul_2:0_generator\/G_MODEL\/B\/LayerNorm\/batchnorm\/sub:0",
      "alpha" : 1,
      "operation" : 0,
      "weights" : {

      },
      "fused_relu" : 0,
      "debug_info" : "generator\/G_MODEL\/B\/LayerNorm\/batchnorm\/sub:0",
      "top" : "generator\/G_MODEL\/B\/LayerNorm\/batchnorm\/sub:0",
      "type" : "elementwise",
      "name" : "generator\/G_MODEL\/B\/LayerNorm\/batchnorm\/sub:0",
      "beta" : 0
    },
    {
      "bottom" : "generator\/G_MODEL\/B\/LayerNorm\/batchnorm\/mul_1:0,generator\/G_MODEL\/B\/LayerNorm\/batchnorm\/sub:0",
      "alpha" : 1,
      "operation" : 0,
      "weights" : {

      },
      "fused_relu" : 0,
      "debug_info" : "generator\/G_MODEL\/B\/LayerNorm\/batchnorm\/add_1:0",
      "top" : "generator\/G_MODEL\/B\/LayerNorm\/batchnorm\/add_1:0",
      "type" : "elementwise",
      "name" : "generator\/G_MODEL\/B\/LayerNorm\/batchnorm\/add_1:0",
      "beta" : 0
    },
    {
      "bottom" : "generator\/G_MODEL\/B\/LayerNorm\/batchnorm\/add_1:0",
      "alpha" : 0.20000000298023224,
      "operation" : 1,
      "weights" : {

      },
      "fused_relu" : 0,
      "debug_info" : "generator\/G_MODEL\/B\/LeakyRelu\/mul:0",
      "top" : "generator\/G_MODEL\/B\/LeakyRelu\/mul:0",
      "type" : "elementwise",
      "name" : "generator\/G_MODEL\/B\/LeakyRelu\/mul:0",
      "beta" : 0
    },
    {
      "bottom" : "generator\/G_MODEL\/B\/LeakyRelu\/mul:0,generator\/G_MODEL\/B\/LayerNorm\/batchnorm\/add_1:0",
      "alpha" : 1,
      "operation" : 23,
      "weights" : {

      },
      "fused_relu" : 0,
      "debug_info" : "generator\/G_MODEL\/B\/LeakyRelu\/Maximum:0",
      "top" : "generator\/G_MODEL\/B\/LeakyRelu\/Maximum:0",
      "type" : "elementwise",
      "name" : "generator\/G_MODEL\/B\/LeakyRelu\/Maximum:0",
      "beta" : 0
    },
    {
      "name" : "generator\/G_MODEL\/B\/MirrorPad_1:0",
      "weights" : {

      },
      "pad_pad_mode" : 0,
      "pad_t" : 1,
      "pad_r" : 1,
      "pad_b" : 1,
      "type" : "general_padding",
      "pad_fill_mode" : 2,
      "bottom" : "generator\/G_MODEL\/B\/LeakyRelu\/Maximum:0",
      "pad_l" : 1,
      "debug_info" : "generator\/G_MODEL\/B\/MirrorPad_1:0",
      "pad_value" : 0,
      "top" : "generator\/G_MODEL\/B\/MirrorPad_1:0"
    },
    {
      "pad_r" : 0,
      "fused_relu" : 0,
      "fused_tanh" : 0,
      "debug_info" : "generator\/G_MODEL\/B\/Conv_1\/Conv2D:0",
      "pad_fill_mode" : 0,
      "pad_b" : 0,
      "pad_l" : 0,
      "top" : "generator\/G_MODEL\/B\/Conv_1\/Conv2D:0",
      "blob_weights" : 25,
      "K" : 128,
      "name" : "generator\/G_MODEL\/B\/Conv_1\/Conv2D:0",
      "has_batch_norm" : 0,
      "type" : "convolution",
      "n_groups" : 1,
      "pad_t" : 0,
      "has_biases" : 0,
      "C" : 128,
      "bottom" : "generator\/G_MODEL\/B\/MirrorPad_1:0",
      "weights" : {

      },
      "Nx" : 3,
      "pad_mode" : 0,
      "pad_value" : 0,
      "Ny" : 3,
      "n_parallel" : 1
    },
    {
      "bottom" : "generator\/G_MODEL\/B\/Conv_1\/Conv2D:0",
      "weights" : {

      },
      "mode" : 1,
      "debug_info" : "generator\/G_MODEL\/B\/LayerNorm_1\/moments\/mean:0",
      "use_version" : 1,
      "top" : "generator\/G_MODEL\/B\/LayerNorm_1\/moments\/mean:0",
      "type" : "reduce",
      "name" : "generator\/G_MODEL\/B\/LayerNorm_1\/moments\/mean:0"
    },
    {
      "alpha" : -1,
      "bottom" : "generator\/G_MODEL\/B\/LayerNorm_1\/moments\/mean:0",
      "weights" : {

      },
      "mode" : 6,
      "debug_info" : "negated_generator\/G_MODEL\/B\/LayerNorm_1\/moments\/StopGradient:0_generator\/G_MODEL\/B\/LayerNorm_1\/moments\/SquaredDifference:0_difference",
      "top" : "negated_generator\/G_MODEL\/B\/LayerNorm_1\/moments\/StopGradient:0_generator\/G_MODEL\/B\/LayerNorm_1\/moments\/SquaredDifference:0_difference",
      "type" : "activation",
      "name" : "negated_generator\/G_MODEL\/B\/LayerNorm_1\/moments\/StopGradient:0_generator\/G_MODEL\/B\/LayerNorm_1\/moments\/SquaredDifference:0_difference",
      "beta" : 0
    },
    {
      "bottom" : "generator\/G_MODEL\/B\/Conv_1\/Conv2D:0,negated_generator\/G_MODEL\/B\/LayerNorm_1\/moments\/StopGradient:0_generator\/G_MODEL\/B\/LayerNorm_1\/moments\/SquaredDifference:0_difference",
      "alpha" : 1,
      "operation" : 0,
      "weights" : {

      },
      "fused_relu" : 0,
      "debug_info" : "generator\/G_MODEL\/B\/LayerNorm_1\/moments\/SquaredDifference:0_difference",
      "top" : "generator\/G_MODEL\/B\/LayerNorm_1\/moments\/SquaredDifference:0_difference",
      "type" : "elementwise",
      "name" : "generator\/G_MODEL\/B\/LayerNorm_1\/moments\/SquaredDifference:0_difference",
      "beta" : 0
    },
    {
      "bottom" : "generator\/G_MODEL\/B\/LayerNorm_1\/moments\/SquaredDifference:0_difference,generator\/G_MODEL\/B\/LayerNorm_1\/moments\/SquaredDifference:0_difference",
      "alpha" : 1,
      "operation" : 1,
      "weights" : {

      },
      "fused_relu" : 0,
      "debug_info" : "generator\/G_MODEL\/B\/LayerNorm_1\/moments\/SquaredDifference:0",
      "top" : "generator\/G_MODEL\/B\/LayerNorm_1\/moments\/SquaredDifference:0",
      "type" : "elementwise",
      "name" : "generator\/G_MODEL\/B\/LayerNorm_1\/moments\/SquaredDifference:0",
      "beta" : 0
    },
    {
      "bottom" : "generator\/G_MODEL\/B\/LayerNorm_1\/moments\/SquaredDifference:0",
      "weights" : {

      },
      "mode" : 1,
      "debug_info" : "generator\/G_MODEL\/B\/LayerNorm_1\/moments\/variance:0",
      "use_version" : 1,
      "top" : "generator\/G_MODEL\/B\/LayerNorm_1\/moments\/variance:0",
      "type" : "reduce",
      "name" : "generator\/G_MODEL\/B\/LayerNorm_1\/moments\/variance:0"
    },
    {
      "bottom" : "generator\/G_MODEL\/B\/LayerNorm_1\/moments\/variance:0",
      "alpha" : 9.999999960041972e-13,
      "operation" : 0,
      "weights" : {

      },
      "fused_relu" : 0,
      "debug_info" : "generator\/G_MODEL\/B\/LayerNorm_1\/batchnorm\/add:0",
      "top" : "generator\/G_MODEL\/B\/LayerNorm_1\/batchnorm\/add:0",
      "type" : "elementwise",
      "name" : "generator\/G_MODEL\/B\/LayerNorm_1\/batchnorm\/add:0",
      "beta" : 0
    },
    {
      "bottom" : "generator\/G_MODEL\/B\/LayerNorm_1\/batchnorm\/add:0",
      "alpha" : 1,
      "operation" : 12,
      "weights" : {

      },
      "fused_relu" : 0,
      "debug_info" : "generator\/G_MODEL\/B\/LayerNorm_1\/batchnorm\/Rsqrt:0",
      "top" : "generator\/G_MODEL\/B\/LayerNorm_1\/batchnorm\/Rsqrt:0",
      "type" : "elementwise",
      "name" : "generator\/G_MODEL\/B\/LayerNorm_1\/batchnorm\/Rsqrt:0",
      "beta" : 0
    },
    {
      "bottom" : "",
      "k" : 128,
      "n" : 1,
      "weights" : {

      },
      "h" : 1,
      "debug_info" : "generator\/G_MODEL\/B\/LayerNorm_1\/gamma\/read:0",
      "constant_blob" : 27,
      "top" : "generator\/G_MODEL\/B\/LayerNorm_1\/gamma\/read:0",
      "w" : 1,
      "type" : "load_constant",
      "name" : "generator\/G_MODEL\/B\/LayerNorm_1\/gamma\/read:0"
    },
    {
      "bottom" : "generator\/G_MODEL\/B\/LayerNorm_1\/batchnorm\/Rsqrt:0,generator\/G_MODEL\/B\/LayerNorm_1\/gamma\/read:0",
      "alpha" : 1,
      "operation" : 1,
      "weights" : {

      },
      "fused_relu" : 0,
      "debug_info" : "generator\/G_MODEL\/B\/LayerNorm_1\/batchnorm\/mul:0",
      "top" : "generator\/G_MODEL\/B\/LayerNorm_1\/batchnorm\/mul:0",
      "type" : "elementwise",
      "name" : "generator\/G_MODEL\/B\/LayerNorm_1\/batchnorm\/mul:0",
      "beta" : 0
    },
    {
      "bottom" : "generator\/G_MODEL\/B\/Conv_1\/Conv2D:0,generator\/G_MODEL\/B\/LayerNorm_1\/batchnorm\/mul:0",
      "alpha" : 1,
      "operation" : 1,
      "weights" : {

      },
      "fused_relu" : 0,
      "debug_info" : "generator\/G_MODEL\/B\/LayerNorm_1\/batchnorm\/mul_1:0",
      "top" : "generator\/G_MODEL\/B\/LayerNorm_1\/batchnorm\/mul_1:0",
      "type" : "elementwise",
      "name" : "generator\/G_MODEL\/B\/LayerNorm_1\/batchnorm\/mul_1:0",
      "beta" : 0
    },
    {
      "bottom" : "generator\/G_MODEL\/B\/LayerNorm_1\/moments\/mean:0,generator\/G_MODEL\/B\/LayerNorm_1\/batchnorm\/mul:0",
      "alpha" : 1,
      "operation" : 1,
      "weights" : {

      },
      "fused_relu" : 0,
      "debug_info" : "generator\/G_MODEL\/B\/LayerNorm_1\/batchnorm\/mul_2:0",
      "top" : "generator\/G_MODEL\/B\/LayerNorm_1\/batchnorm\/mul_2:0",
      "type" : "elementwise",
      "name" : "generator\/G_MODEL\/B\/LayerNorm_1\/batchnorm\/mul_2:0",
      "beta" : 0
    },
    {
      "bottom" : "",
      "k" : 128,
      "n" : 1,
      "weights" : {

      },
      "h" : 1,
      "debug_info" : "generator\/G_MODEL\/B\/LayerNorm_1\/beta\/read:0",
      "constant_blob" : 29,
      "top" : "generator\/G_MODEL\/B\/LayerNorm_1\/beta\/read:0",
      "w" : 1,
      "type" : "load_constant",
      "name" : "generator\/G_MODEL\/B\/LayerNorm_1\/beta\/read:0"
    },
    {
      "alpha" : -1,
      "bottom" : "generator\/G_MODEL\/B\/LayerNorm_1\/batchnorm\/mul_2:0",
      "weights" : {

      },
      "mode" : 6,
      "debug_info" : "negated_generator\/G_MODEL\/B\/LayerNorm_1\/batchnorm\/mul_2:0_generator\/G_MODEL\/B\/LayerNorm_1\/batchnorm\/sub:0",
      "top" : "negated_generator\/G_MODEL\/B\/LayerNorm_1\/batchnorm\/mul_2:0_generator\/G_MODEL\/B\/LayerNorm_1\/batchnorm\/sub:0",
      "type" : "activation",
      "name" : "negated_generator\/G_MODEL\/B\/LayerNorm_1\/batchnorm\/mul_2:0_generator\/G_MODEL\/B\/LayerNorm_1\/batchnorm\/sub:0",
      "beta" : 0
    },
    {
      "bottom" : "generator\/G_MODEL\/B\/LayerNorm_1\/beta\/read:0,negated_generator\/G_MODEL\/B\/LayerNorm_1\/batchnorm\/mul_2:0_generator\/G_MODEL\/B\/LayerNorm_1\/batchnorm\/sub:0",
      "alpha" : 1,
      "operation" : 0,
      "weights" : {

      },
      "fused_relu" : 0,
      "debug_info" : "generator\/G_MODEL\/B\/LayerNorm_1\/batchnorm\/sub:0",
      "top" : "generator\/G_MODEL\/B\/LayerNorm_1\/batchnorm\/sub:0",
      "type" : "elementwise",
      "name" : "generator\/G_MODEL\/B\/LayerNorm_1\/batchnorm\/sub:0",
      "beta" : 0
    },
    {
      "bottom" : "generator\/G_MODEL\/B\/LayerNorm_1\/batchnorm\/mul_1:0,generator\/G_MODEL\/B\/LayerNorm_1\/batchnorm\/sub:0",
      "alpha" : 1,
      "operation" : 0,
      "weights" : {

      },
      "fused_relu" : 0,
      "debug_info" : "generator\/G_MODEL\/B\/LayerNorm_1\/batchnorm\/add_1:0",
      "top" : "generator\/G_MODEL\/B\/LayerNorm_1\/batchnorm\/add_1:0",
      "type" : "elementwise",
      "name" : "generator\/G_MODEL\/B\/LayerNorm_1\/batchnorm\/add_1:0",
      "beta" : 0
    },
    {
      "bottom" : "generator\/G_MODEL\/B\/LayerNorm_1\/batchnorm\/add_1:0",
      "alpha" : 0.20000000298023224,
      "operation" : 1,
      "weights" : {

      },
      "fused_relu" : 0,
      "debug_info" : "generator\/G_MODEL\/B\/LeakyRelu_1\/mul:0",
      "top" : "generator\/G_MODEL\/B\/LeakyRelu_1\/mul:0",
      "type" : "elementwise",
      "name" : "generator\/G_MODEL\/B\/LeakyRelu_1\/mul:0",
      "beta" : 0
    },
    {
      "bottom" : "generator\/G_MODEL\/B\/LeakyRelu_1\/mul:0,generator\/G_MODEL\/B\/LayerNorm_1\/batchnorm\/add_1:0",
      "alpha" : 1,
      "operation" : 23,
      "weights" : {

      },
      "fused_relu" : 0,
      "debug_info" : "generator\/G_MODEL\/B\/LeakyRelu_1\/Maximum:0",
      "top" : "generator\/G_MODEL\/B\/LeakyRelu_1\/Maximum:0",
      "type" : "elementwise",
      "name" : "generator\/G_MODEL\/B\/LeakyRelu_1\/Maximum:0",
      "beta" : 0
    },
    {
      "name" : "generator\/G_MODEL\/C\/MirrorPad:0",
      "weights" : {

      },
      "pad_pad_mode" : 0,
      "pad_t" : 1,
      "pad_r" : 1,
      "pad_b" : 1,
      "type" : "general_padding",
      "pad_fill_mode" : 2,
      "bottom" : "generator\/G_MODEL\/B\/LeakyRelu_1\/Maximum:0",
      "pad_l" : 1,
      "debug_info" : "generator\/G_MODEL\/C\/MirrorPad:0",
      "pad_value" : 0,
      "top" : "generator\/G_MODEL\/C\/MirrorPad:0"
    },
    {
      "pad_r" : 0,
      "fused_relu" : 0,
      "fused_tanh" : 0,
      "debug_info" : "generator\/G_MODEL\/C\/Conv\/Conv2D:0",
      "pad_fill_mode" : 0,
      "pad_b" : 0,
      "pad_l" : 0,
      "top" : "generator\/G_MODEL\/C\/Conv\/Conv2D:0",
      "blob_weights" : 31,
      "K" : 128,
      "name" : "generator\/G_MODEL\/C\/Conv\/Conv2D:0",
      "has_batch_norm" : 0,
      "type" : "convolution",
      "n_groups" : 1,
      "pad_t" : 0,
      "has_biases" : 0,
      "C" : 128,
      "bottom" : "generator\/G_MODEL\/C\/MirrorPad:0",
      "weights" : {

      },
      "Nx" : 3,
      "pad_mode" : 0,
      "pad_value" : 0,
      "Ny" : 3,
      "n_parallel" : 1
    },
    {
      "bottom" : "generator\/G_MODEL\/C\/Conv\/Conv2D:0",
      "weights" : {

      },
      "mode" : 1,
      "debug_info" : "generator\/G_MODEL\/C\/LayerNorm\/moments\/mean:0",
      "use_version" : 1,
      "top" : "generator\/G_MODEL\/C\/LayerNorm\/moments\/mean:0",
      "type" : "reduce",
      "name" : "generator\/G_MODEL\/C\/LayerNorm\/moments\/mean:0"
    },
    {
      "alpha" : -1,
      "bottom" : "generator\/G_MODEL\/C\/LayerNorm\/moments\/mean:0",
      "weights" : {

      },
      "mode" : 6,
      "debug_info" : "negated_generator\/G_MODEL\/C\/LayerNorm\/moments\/StopGradient:0_generator\/G_MODEL\/C\/LayerNorm\/moments\/SquaredDifference:0_difference",
      "top" : "negated_generator\/G_MODEL\/C\/LayerNorm\/moments\/StopGradient:0_generator\/G_MODEL\/C\/LayerNorm\/moments\/SquaredDifference:0_difference",
      "type" : "activation",
      "name" : "negated_generator\/G_MODEL\/C\/LayerNorm\/moments\/StopGradient:0_generator\/G_MODEL\/C\/LayerNorm\/moments\/SquaredDifference:0_difference",
      "beta" : 0
    },
    {
      "bottom" : "generator\/G_MODEL\/C\/Conv\/Conv2D:0,negated_generator\/G_MODEL\/C\/LayerNorm\/moments\/StopGradient:0_generator\/G_MODEL\/C\/LayerNorm\/moments\/SquaredDifference:0_difference",
      "alpha" : 1,
      "operation" : 0,
      "weights" : {

      },
      "fused_relu" : 0,
      "debug_info" : "generator\/G_MODEL\/C\/LayerNorm\/moments\/SquaredDifference:0_difference",
      "top" : "generator\/G_MODEL\/C\/LayerNorm\/moments\/SquaredDifference:0_difference",
      "type" : "elementwise",
      "name" : "generator\/G_MODEL\/C\/LayerNorm\/moments\/SquaredDifference:0_difference",
      "beta" : 0
    },
    {
      "bottom" : "generator\/G_MODEL\/C\/LayerNorm\/moments\/SquaredDifference:0_difference,generator\/G_MODEL\/C\/LayerNorm\/moments\/SquaredDifference:0_difference",
      "alpha" : 1,
      "operation" : 1,
      "weights" : {

      },
      "fused_relu" : 0,
      "debug_info" : "generator\/G_MODEL\/C\/LayerNorm\/moments\/SquaredDifference:0",
      "top" : "generator\/G_MODEL\/C\/LayerNorm\/moments\/SquaredDifference:0",
      "type" : "elementwise",
      "name" : "generator\/G_MODEL\/C\/LayerNorm\/moments\/SquaredDifference:0",
      "beta" : 0
    },
    {
      "bottom" : "generator\/G_MODEL\/C\/LayerNorm\/moments\/SquaredDifference:0",
      "weights" : {

      },
      "mode" : 1,
      "debug_info" : "generator\/G_MODEL\/C\/LayerNorm\/moments\/variance:0",
      "use_version" : 1,
      "top" : "generator\/G_MODEL\/C\/LayerNorm\/moments\/variance:0",
      "type" : "reduce",
      "name" : "generator\/G_MODEL\/C\/LayerNorm\/moments\/variance:0"
    },
    {
      "bottom" : "generator\/G_MODEL\/C\/LayerNorm\/moments\/variance:0",
      "alpha" : 9.999999960041972e-13,
      "operation" : 0,
      "weights" : {

      },
      "fused_relu" : 0,
      "debug_info" : "generator\/G_MODEL\/C\/LayerNorm\/batchnorm\/add:0",
      "top" : "generator\/G_MODEL\/C\/LayerNorm\/batchnorm\/add:0",
      "type" : "elementwise",
      "name" : "generator\/G_MODEL\/C\/LayerNorm\/batchnorm\/add:0",
      "beta" : 0
    },
    {
      "bottom" : "generator\/G_MODEL\/C\/LayerNorm\/batchnorm\/add:0",
      "alpha" : 1,
      "operation" : 12,
      "weights" : {

      },
      "fused_relu" : 0,
      "debug_info" : "generator\/G_MODEL\/C\/LayerNorm\/batchnorm\/Rsqrt:0",
      "top" : "generator\/G_MODEL\/C\/LayerNorm\/batchnorm\/Rsqrt:0",
      "type" : "elementwise",
      "name" : "generator\/G_MODEL\/C\/LayerNorm\/batchnorm\/Rsqrt:0",
      "beta" : 0
    },
    {
      "bottom" : "",
      "k" : 128,
      "n" : 1,
      "weights" : {

      },
      "h" : 1,
      "debug_info" : "generator\/G_MODEL\/C\/LayerNorm\/gamma\/read:0",
      "constant_blob" : 33,
      "top" : "generator\/G_MODEL\/C\/LayerNorm\/gamma\/read:0",
      "w" : 1,
      "type" : "load_constant",
      "name" : "generator\/G_MODEL\/C\/LayerNorm\/gamma\/read:0"
    },
    {
      "bottom" : "generator\/G_MODEL\/C\/LayerNorm\/batchnorm\/Rsqrt:0,generator\/G_MODEL\/C\/LayerNorm\/gamma\/read:0",
      "alpha" : 1,
      "operation" : 1,
      "weights" : {

      },
      "fused_relu" : 0,
      "debug_info" : "generator\/G_MODEL\/C\/LayerNorm\/batchnorm\/mul:0",
      "top" : "generator\/G_MODEL\/C\/LayerNorm\/batchnorm\/mul:0",
      "type" : "elementwise",
      "name" : "generator\/G_MODEL\/C\/LayerNorm\/batchnorm\/mul:0",
      "beta" : 0
    },
    {
      "bottom" : "generator\/G_MODEL\/C\/Conv\/Conv2D:0,generator\/G_MODEL\/C\/LayerNorm\/batchnorm\/mul:0",
      "alpha" : 1,
      "operation" : 1,
      "weights" : {

      },
      "fused_relu" : 0,
      "debug_info" : "generator\/G_MODEL\/C\/LayerNorm\/batchnorm\/mul_1:0",
      "top" : "generator\/G_MODEL\/C\/LayerNorm\/batchnorm\/mul_1:0",
      "type" : "elementwise",
      "name" : "generator\/G_MODEL\/C\/LayerNorm\/batchnorm\/mul_1:0",
      "beta" : 0
    },
    {
      "bottom" : "generator\/G_MODEL\/C\/LayerNorm\/moments\/mean:0,generator\/G_MODEL\/C\/LayerNorm\/batchnorm\/mul:0",
      "alpha" : 1,
      "operation" : 1,
      "weights" : {

      },
      "fused_relu" : 0,
      "debug_info" : "generator\/G_MODEL\/C\/LayerNorm\/batchnorm\/mul_2:0",
      "top" : "generator\/G_MODEL\/C\/LayerNorm\/batchnorm\/mul_2:0",
      "type" : "elementwise",
      "name" : "generator\/G_MODEL\/C\/LayerNorm\/batchnorm\/mul_2:0",
      "beta" : 0
    },
    {
      "bottom" : "",
      "k" : 128,
      "n" : 1,
      "weights" : {

      },
      "h" : 1,
      "debug_info" : "generator\/G_MODEL\/C\/LayerNorm\/beta\/read:0",
      "constant_blob" : 35,
      "top" : "generator\/G_MODEL\/C\/LayerNorm\/beta\/read:0",
      "w" : 1,
      "type" : "load_constant",
      "name" : "generator\/G_MODEL\/C\/LayerNorm\/beta\/read:0"
    },
    {
      "alpha" : -1,
      "bottom" : "generator\/G_MODEL\/C\/LayerNorm\/batchnorm\/mul_2:0",
      "weights" : {

      },
      "mode" : 6,
      "debug_info" : "negated_generator\/G_MODEL\/C\/LayerNorm\/batchnorm\/mul_2:0_generator\/G_MODEL\/C\/LayerNorm\/batchnorm\/sub:0",
      "top" : "negated_generator\/G_MODEL\/C\/LayerNorm\/batchnorm\/mul_2:0_generator\/G_MODEL\/C\/LayerNorm\/batchnorm\/sub:0",
      "type" : "activation",
      "name" : "negated_generator\/G_MODEL\/C\/LayerNorm\/batchnorm\/mul_2:0_generator\/G_MODEL\/C\/LayerNorm\/batchnorm\/sub:0",
      "beta" : 0
    },
    {
      "bottom" : "generator\/G_MODEL\/C\/LayerNorm\/beta\/read:0,negated_generator\/G_MODEL\/C\/LayerNorm\/batchnorm\/mul_2:0_generator\/G_MODEL\/C\/LayerNorm\/batchnorm\/sub:0",
      "alpha" : 1,
      "operation" : 0,
      "weights" : {

      },
      "fused_relu" : 0,
      "debug_info" : "generator\/G_MODEL\/C\/LayerNorm\/batchnorm\/sub:0",
      "top" : "generator\/G_MODEL\/C\/LayerNorm\/batchnorm\/sub:0",
      "type" : "elementwise",
      "name" : "generator\/G_MODEL\/C\/LayerNorm\/batchnorm\/sub:0",
      "beta" : 0
    },
    {
      "bottom" : "generator\/G_MODEL\/C\/LayerNorm\/batchnorm\/mul_1:0,generator\/G_MODEL\/C\/LayerNorm\/batchnorm\/sub:0",
      "alpha" : 1,
      "operation" : 0,
      "weights" : {

      },
      "fused_relu" : 0,
      "debug_info" : "generator\/G_MODEL\/C\/LayerNorm\/batchnorm\/add_1:0",
      "top" : "generator\/G_MODEL\/C\/LayerNorm\/batchnorm\/add_1:0",
      "type" : "elementwise",
      "name" : "generator\/G_MODEL\/C\/LayerNorm\/batchnorm\/add_1:0",
      "beta" : 0
    },
    {
      "bottom" : "generator\/G_MODEL\/C\/LayerNorm\/batchnorm\/add_1:0",
      "alpha" : 0.20000000298023224,
      "operation" : 1,
      "weights" : {

      },
      "fused_relu" : 0,
      "debug_info" : "generator\/G_MODEL\/C\/LeakyRelu\/mul:0",
      "top" : "generator\/G_MODEL\/C\/LeakyRelu\/mul:0",
      "type" : "elementwise",
      "name" : "generator\/G_MODEL\/C\/LeakyRelu\/mul:0",
      "beta" : 0
    },
    {
      "bottom" : "generator\/G_MODEL\/C\/LeakyRelu\/mul:0,generator\/G_MODEL\/C\/LayerNorm\/batchnorm\/add_1:0",
      "alpha" : 1,
      "operation" : 23,
      "weights" : {

      },
      "fused_relu" : 0,
      "debug_info" : "generator\/G_MODEL\/C\/LeakyRelu\/Maximum:0",
      "top" : "generator\/G_MODEL\/C\/LeakyRelu\/Maximum:0",
      "type" : "elementwise",
      "name" : "generator\/G_MODEL\/C\/LeakyRelu\/Maximum:0",
      "beta" : 0
    },
    {
      "pad_r" : 0,
      "fused_relu" : 0,
      "fused_tanh" : 0,
      "debug_info" : "generator\/G_MODEL\/C\/r1\/Conv\/Conv2D:0",
      "pad_fill_mode" : 0,
      "pad_b" : 0,
      "pad_l" : 0,
      "top" : "generator\/G_MODEL\/C\/r1\/Conv\/Conv2D:0",
      "blob_weights" : 37,
      "K" : 128,
      "name" : "generator\/G_MODEL\/C\/r1\/Conv\/Conv2D:0",
      "has_batch_norm" : 0,
      "type" : "convolution",
      "n_groups" : 1,
      "pad_t" : 0,
      "has_biases" : 0,
      "C" : 256,
      "bottom" : "generator\/G_MODEL\/C\/LeakyRelu\/Maximum:0",
      "weights" : {

      },
      "Nx" : 1,
      "pad_mode" : 0,
      "pad_value" : 0,
      "Ny" : 1,
      "n_parallel" : 1
    },
    {
      "bottom" : "generator\/G_MODEL\/C\/r1\/Conv\/Conv2D:0",
      "weights" : {

      },
      "mode" : 1,
      "debug_info" : "generator\/G_MODEL\/C\/r1\/LayerNorm\/moments\/mean:0",
      "use_version" : 1,
      "top" : "generator\/G_MODEL\/C\/r1\/LayerNorm\/moments\/mean:0",
      "type" : "reduce",
      "name" : "generator\/G_MODEL\/C\/r1\/LayerNorm\/moments\/mean:0"
    },
    {
      "alpha" : -1,
      "bottom" : "generator\/G_MODEL\/C\/r1\/LayerNorm\/moments\/mean:0",
      "weights" : {

      },
      "mode" : 6,
      "debug_info" : "negated_generator\/G_MODEL\/C\/r1\/LayerNorm\/moments\/StopGradient:0_generator\/G_MODEL\/C\/r1\/LayerNorm\/moments\/SquaredDifference:0_difference",
      "top" : "negated_generator\/G_MODEL\/C\/r1\/LayerNorm\/moments\/StopGradient:0_generator\/G_MODEL\/C\/r1\/LayerNorm\/moments\/SquaredDifference:0_difference",
      "type" : "activation",
      "name" : "negated_generator\/G_MODEL\/C\/r1\/LayerNorm\/moments\/StopGradient:0_generator\/G_MODEL\/C\/r1\/LayerNorm\/moments\/SquaredDifference:0_difference",
      "beta" : 0
    },
    {
      "bottom" : "generator\/G_MODEL\/C\/r1\/Conv\/Conv2D:0,negated_generator\/G_MODEL\/C\/r1\/LayerNorm\/moments\/StopGradient:0_generator\/G_MODEL\/C\/r1\/LayerNorm\/moments\/SquaredDifference:0_difference",
      "alpha" : 1,
      "operation" : 0,
      "weights" : {

      },
      "fused_relu" : 0,
      "debug_info" : "generator\/G_MODEL\/C\/r1\/LayerNorm\/moments\/SquaredDifference:0_difference",
      "top" : "generator\/G_MODEL\/C\/r1\/LayerNorm\/moments\/SquaredDifference:0_difference",
      "type" : "elementwise",
      "name" : "generator\/G_MODEL\/C\/r1\/LayerNorm\/moments\/SquaredDifference:0_difference",
      "beta" : 0
    },
    {
      "bottom" : "generator\/G_MODEL\/C\/r1\/LayerNorm\/moments\/SquaredDifference:0_difference,generator\/G_MODEL\/C\/r1\/LayerNorm\/moments\/SquaredDifference:0_difference",
      "alpha" : 1,
      "operation" : 1,
      "weights" : {

      },
      "fused_relu" : 0,
      "debug_info" : "generator\/G_MODEL\/C\/r1\/LayerNorm\/moments\/SquaredDifference:0",
      "top" : "generator\/G_MODEL\/C\/r1\/LayerNorm\/moments\/SquaredDifference:0",
      "type" : "elementwise",
      "name" : "generator\/G_MODEL\/C\/r1\/LayerNorm\/moments\/SquaredDifference:0",
      "beta" : 0
    },
    {
      "bottom" : "generator\/G_MODEL\/C\/r1\/LayerNorm\/moments\/SquaredDifference:0",
      "weights" : {

      },
      "mode" : 1,
      "debug_info" : "generator\/G_MODEL\/C\/r1\/LayerNorm\/moments\/variance:0",
      "use_version" : 1,
      "top" : "generator\/G_MODEL\/C\/r1\/LayerNorm\/moments\/variance:0",
      "type" : "reduce",
      "name" : "generator\/G_MODEL\/C\/r1\/LayerNorm\/moments\/variance:0"
    },
    {
      "bottom" : "generator\/G_MODEL\/C\/r1\/LayerNorm\/moments\/variance:0",
      "alpha" : 9.999999960041972e-13,
      "operation" : 0,
      "weights" : {

      },
      "fused_relu" : 0,
      "debug_info" : "generator\/G_MODEL\/C\/r1\/LayerNorm\/batchnorm\/add:0",
      "top" : "generator\/G_MODEL\/C\/r1\/LayerNorm\/batchnorm\/add:0",
      "type" : "elementwise",
      "name" : "generator\/G_MODEL\/C\/r1\/LayerNorm\/batchnorm\/add:0",
      "beta" : 0
    },
    {
      "bottom" : "generator\/G_MODEL\/C\/r1\/LayerNorm\/batchnorm\/add:0",
      "alpha" : 1,
      "operation" : 12,
      "weights" : {

      },
      "fused_relu" : 0,
      "debug_info" : "generator\/G_MODEL\/C\/r1\/LayerNorm\/batchnorm\/Rsqrt:0",
      "top" : "generator\/G_MODEL\/C\/r1\/LayerNorm\/batchnorm\/Rsqrt:0",
      "type" : "elementwise",
      "name" : "generator\/G_MODEL\/C\/r1\/LayerNorm\/batchnorm\/Rsqrt:0",
      "beta" : 0
    },
    {
      "bottom" : "",
      "k" : 256,
      "n" : 1,
      "weights" : {

      },
      "h" : 1,
      "debug_info" : "generator\/G_MODEL\/C\/r1\/LayerNorm\/gamma\/read:0",
      "constant_blob" : 39,
      "top" : "generator\/G_MODEL\/C\/r1\/LayerNorm\/gamma\/read:0",
      "w" : 1,
      "type" : "load_constant",
      "name" : "generator\/G_MODEL\/C\/r1\/LayerNorm\/gamma\/read:0"
    },
    {
      "bottom" : "generator\/G_MODEL\/C\/r1\/LayerNorm\/batchnorm\/Rsqrt:0,generator\/G_MODEL\/C\/r1\/LayerNorm\/gamma\/read:0",
      "alpha" : 1,
      "operation" : 1,
      "weights" : {

      },
      "fused_relu" : 0,
      "debug_info" : "generator\/G_MODEL\/C\/r1\/LayerNorm\/batchnorm\/mul:0",
      "top" : "generator\/G_MODEL\/C\/r1\/LayerNorm\/batchnorm\/mul:0",
      "type" : "elementwise",
      "name" : "generator\/G_MODEL\/C\/r1\/LayerNorm\/batchnorm\/mul:0",
      "beta" : 0
    },
    {
      "bottom" : "generator\/G_MODEL\/C\/r1\/Conv\/Conv2D:0,generator\/G_MODEL\/C\/r1\/LayerNorm\/batchnorm\/mul:0",
      "alpha" : 1,
      "operation" : 1,
      "weights" : {

      },
      "fused_relu" : 0,
      "debug_info" : "generator\/G_MODEL\/C\/r1\/LayerNorm\/batchnorm\/mul_1:0",
      "top" : "generator\/G_MODEL\/C\/r1\/LayerNorm\/batchnorm\/mul_1:0",
      "type" : "elementwise",
      "name" : "generator\/G_MODEL\/C\/r1\/LayerNorm\/batchnorm\/mul_1:0",
      "beta" : 0
    },
    {
      "bottom" : "generator\/G_MODEL\/C\/r1\/LayerNorm\/moments\/mean:0,generator\/G_MODEL\/C\/r1\/LayerNorm\/batchnorm\/mul:0",
      "alpha" : 1,
      "operation" : 1,
      "weights" : {

      },
      "fused_relu" : 0,
      "debug_info" : "generator\/G_MODEL\/C\/r1\/LayerNorm\/batchnorm\/mul_2:0",
      "top" : "generator\/G_MODEL\/C\/r1\/LayerNorm\/batchnorm\/mul_2:0",
      "type" : "elementwise",
      "name" : "generator\/G_MODEL\/C\/r1\/LayerNorm\/batchnorm\/mul_2:0",
      "beta" : 0
    },
    {
      "bottom" : "",
      "k" : 256,
      "n" : 1,
      "weights" : {

      },
      "h" : 1,
      "debug_info" : "generator\/G_MODEL\/C\/r1\/LayerNorm\/beta\/read:0",
      "constant_blob" : 41,
      "top" : "generator\/G_MODEL\/C\/r1\/LayerNorm\/beta\/read:0",
      "w" : 1,
      "type" : "load_constant",
      "name" : "generator\/G_MODEL\/C\/r1\/LayerNorm\/beta\/read:0"
    },
    {
      "alpha" : -1,
      "bottom" : "generator\/G_MODEL\/C\/r1\/LayerNorm\/batchnorm\/mul_2:0",
      "weights" : {

      },
      "mode" : 6,
      "debug_info" : "negated_generator\/G_MODEL\/C\/r1\/LayerNorm\/batchnorm\/mul_2:0_generator\/G_MODEL\/C\/r1\/LayerNorm\/batchnorm\/sub:0",
      "top" : "negated_generator\/G_MODEL\/C\/r1\/LayerNorm\/batchnorm\/mul_2:0_generator\/G_MODEL\/C\/r1\/LayerNorm\/batchnorm\/sub:0",
      "type" : "activation",
      "name" : "negated_generator\/G_MODEL\/C\/r1\/LayerNorm\/batchnorm\/mul_2:0_generator\/G_MODEL\/C\/r1\/LayerNorm\/batchnorm\/sub:0",
      "beta" : 0
    },
    {
      "bottom" : "generator\/G_MODEL\/C\/r1\/LayerNorm\/beta\/read:0,negated_generator\/G_MODEL\/C\/r1\/LayerNorm\/batchnorm\/mul_2:0_generator\/G_MODEL\/C\/r1\/LayerNorm\/batchnorm\/sub:0",
      "alpha" : 1,
      "operation" : 0,
      "weights" : {

      },
      "fused_relu" : 0,
      "debug_info" : "generator\/G_MODEL\/C\/r1\/LayerNorm\/batchnorm\/sub:0",
      "top" : "generator\/G_MODEL\/C\/r1\/LayerNorm\/batchnorm\/sub:0",
      "type" : "elementwise",
      "name" : "generator\/G_MODEL\/C\/r1\/LayerNorm\/batchnorm\/sub:0",
      "beta" : 0
    },
    {
      "bottom" : "generator\/G_MODEL\/C\/r1\/LayerNorm\/batchnorm\/mul_1:0,generator\/G_MODEL\/C\/r1\/LayerNorm\/batchnorm\/sub:0",
      "alpha" : 1,
      "operation" : 0,
      "weights" : {

      },
      "fused_relu" : 0,
      "debug_info" : "generator\/G_MODEL\/C\/r1\/LayerNorm\/batchnorm\/add_1:0",
      "top" : "generator\/G_MODEL\/C\/r1\/LayerNorm\/batchnorm\/add_1:0",
      "type" : "elementwise",
      "name" : "generator\/G_MODEL\/C\/r1\/LayerNorm\/batchnorm\/add_1:0",
      "beta" : 0
    },
    {
      "bottom" : "generator\/G_MODEL\/C\/r1\/LayerNorm\/batchnorm\/add_1:0",
      "alpha" : 0.20000000298023224,
      "operation" : 1,
      "weights" : {

      },
      "fused_relu" : 0,
      "debug_info" : "generator\/G_MODEL\/C\/r1\/LeakyRelu\/mul:0",
      "top" : "generator\/G_MODEL\/C\/r1\/LeakyRelu\/mul:0",
      "type" : "elementwise",
      "name" : "generator\/G_MODEL\/C\/r1\/LeakyRelu\/mul:0",
      "beta" : 0
    },
    {
      "bottom" : "generator\/G_MODEL\/C\/r1\/LeakyRelu\/mul:0,generator\/G_MODEL\/C\/r1\/LayerNorm\/batchnorm\/add_1:0",
      "alpha" : 1,
      "operation" : 23,
      "weights" : {

      },
      "fused_relu" : 0,
      "debug_info" : "generator\/G_MODEL\/C\/r1\/LeakyRelu\/Maximum:0",
      "top" : "generator\/G_MODEL\/C\/r1\/LeakyRelu\/Maximum:0",
      "type" : "elementwise",
      "name" : "generator\/G_MODEL\/C\/r1\/LeakyRelu\/Maximum:0",
      "beta" : 0
    },
    {
      "name" : "generator\/G_MODEL\/C\/r1\/MirrorPad:0",
      "weights" : {

      },
      "pad_pad_mode" : 0,
      "pad_t" : 1,
      "pad_r" : 1,
      "pad_b" : 1,
      "type" : "general_padding",
      "pad_fill_mode" : 2,
      "bottom" : "generator\/G_MODEL\/C\/r1\/LeakyRelu\/Maximum:0",
      "pad_l" : 1,
      "debug_info" : "generator\/G_MODEL\/C\/r1\/MirrorPad:0",
      "pad_value" : 0,
      "top" : "generator\/G_MODEL\/C\/r1\/MirrorPad:0"
    },
    {
      "pad_r" : 0,
      "fused_relu" : 0,
      "fused_tanh" : 0,
      "debug_info" : "generator\/G_MODEL\/C\/r1\/r1\/r1:0",
      "pad_fill_mode" : 0,
      "pad_b" : 0,
      "pad_l" : 0,
      "top" : "generator\/G_MODEL\/C\/r1\/r1\/BiasAdd:0",
      "blob_weights" : 45,
      "K" : 256,
      "blob_biases" : 43,
      "name" : "generator\/G_MODEL\/C\/r1\/r1\/r1:0",
      "has_batch_norm" : 0,
      "type" : "convolution",
      "n_groups" : 256,
      "pad_t" : 0,
      "has_biases" : 1,
      "C" : 256,
      "bottom" : "generator\/G_MODEL\/C\/r1\/MirrorPad:0",
      "weights" : {

      },
      "Nx" : 3,
      "pad_mode" : 0,
      "pad_value" : 0,
      "Ny" : 3,
      "n_parallel" : 1
    },
    {
      "bottom" : "generator\/G_MODEL\/C\/r1\/r1\/BiasAdd:0",
      "weights" : {

      },
      "mode" : 1,
      "debug_info" : "generator\/G_MODEL\/C\/r1\/1\/moments\/mean:0",
      "use_version" : 1,
      "top" : "generator\/G_MODEL\/C\/r1\/1\/moments\/mean:0",
      "type" : "reduce",
      "name" : "generator\/G_MODEL\/C\/r1\/1\/moments\/mean:0"
    },
    {
      "alpha" : -1,
      "bottom" : "generator\/G_MODEL\/C\/r1\/1\/moments\/mean:0",
      "weights" : {

      },
      "mode" : 6,
      "debug_info" : "negated_generator\/G_MODEL\/C\/r1\/1\/moments\/StopGradient:0_generator\/G_MODEL\/C\/r1\/1\/moments\/SquaredDifference:0_difference",
      "top" : "negated_generator\/G_MODEL\/C\/r1\/1\/moments\/StopGradient:0_generator\/G_MODEL\/C\/r1\/1\/moments\/SquaredDifference:0_difference",
      "type" : "activation",
      "name" : "negated_generator\/G_MODEL\/C\/r1\/1\/moments\/StopGradient:0_generator\/G_MODEL\/C\/r1\/1\/moments\/SquaredDifference:0_difference",
      "beta" : 0
    },
    {
      "bottom" : "generator\/G_MODEL\/C\/r1\/r1\/BiasAdd:0,negated_generator\/G_MODEL\/C\/r1\/1\/moments\/StopGradient:0_generator\/G_MODEL\/C\/r1\/1\/moments\/SquaredDifference:0_difference",
      "alpha" : 1,
      "operation" : 0,
      "weights" : {

      },
      "fused_relu" : 0,
      "debug_info" : "generator\/G_MODEL\/C\/r1\/1\/moments\/SquaredDifference:0_difference",
      "top" : "generator\/G_MODEL\/C\/r1\/1\/moments\/SquaredDifference:0_difference",
      "type" : "elementwise",
      "name" : "generator\/G_MODEL\/C\/r1\/1\/moments\/SquaredDifference:0_difference",
      "beta" : 0
    },
    {
      "bottom" : "generator\/G_MODEL\/C\/r1\/1\/moments\/SquaredDifference:0_difference,generator\/G_MODEL\/C\/r1\/1\/moments\/SquaredDifference:0_difference",
      "alpha" : 1,
      "operation" : 1,
      "weights" : {

      },
      "fused_relu" : 0,
      "debug_info" : "generator\/G_MODEL\/C\/r1\/1\/moments\/SquaredDifference:0",
      "top" : "generator\/G_MODEL\/C\/r1\/1\/moments\/SquaredDifference:0",
      "type" : "elementwise",
      "name" : "generator\/G_MODEL\/C\/r1\/1\/moments\/SquaredDifference:0",
      "beta" : 0
    },
    {
      "bottom" : "generator\/G_MODEL\/C\/r1\/1\/moments\/SquaredDifference:0",
      "weights" : {

      },
      "mode" : 1,
      "debug_info" : "generator\/G_MODEL\/C\/r1\/1\/moments\/variance:0",
      "use_version" : 1,
      "top" : "generator\/G_MODEL\/C\/r1\/1\/moments\/variance:0",
      "type" : "reduce",
      "name" : "generator\/G_MODEL\/C\/r1\/1\/moments\/variance:0"
    },
    {
      "bottom" : "generator\/G_MODEL\/C\/r1\/1\/moments\/variance:0",
      "alpha" : 9.999999960041972e-13,
      "operation" : 0,
      "weights" : {

      },
      "fused_relu" : 0,
      "debug_info" : "generator\/G_MODEL\/C\/r1\/1\/batchnorm\/add:0",
      "top" : "generator\/G_MODEL\/C\/r1\/1\/batchnorm\/add:0",
      "type" : "elementwise",
      "name" : "generator\/G_MODEL\/C\/r1\/1\/batchnorm\/add:0",
      "beta" : 0
    },
    {
      "bottom" : "generator\/G_MODEL\/C\/r1\/1\/batchnorm\/add:0",
      "alpha" : 1,
      "operation" : 12,
      "weights" : {

      },
      "fused_relu" : 0,
      "debug_info" : "generator\/G_MODEL\/C\/r1\/1\/batchnorm\/Rsqrt:0",
      "top" : "generator\/G_MODEL\/C\/r1\/1\/batchnorm\/Rsqrt:0",
      "type" : "elementwise",
      "name" : "generator\/G_MODEL\/C\/r1\/1\/batchnorm\/Rsqrt:0",
      "beta" : 0
    },
    {
      "bottom" : "",
      "k" : 256,
      "n" : 1,
      "weights" : {

      },
      "h" : 1,
      "debug_info" : "generator\/G_MODEL\/C\/r1\/1\/gamma\/read:0",
      "constant_blob" : 47,
      "top" : "generator\/G_MODEL\/C\/r1\/1\/gamma\/read:0",
      "w" : 1,
      "type" : "load_constant",
      "name" : "generator\/G_MODEL\/C\/r1\/1\/gamma\/read:0"
    },
    {
      "bottom" : "generator\/G_MODEL\/C\/r1\/1\/batchnorm\/Rsqrt:0,generator\/G_MODEL\/C\/r1\/1\/gamma\/read:0",
      "alpha" : 1,
      "operation" : 1,
      "weights" : {

      },
      "fused_relu" : 0,
      "debug_info" : "generator\/G_MODEL\/C\/r1\/1\/batchnorm\/mul:0",
      "top" : "generator\/G_MODEL\/C\/r1\/1\/batchnorm\/mul:0",
      "type" : "elementwise",
      "name" : "generator\/G_MODEL\/C\/r1\/1\/batchnorm\/mul:0",
      "beta" : 0
    },
    {
      "bottom" : "generator\/G_MODEL\/C\/r1\/r1\/BiasAdd:0,generator\/G_MODEL\/C\/r1\/1\/batchnorm\/mul:0",
      "alpha" : 1,
      "operation" : 1,
      "weights" : {

      },
      "fused_relu" : 0,
      "debug_info" : "generator\/G_MODEL\/C\/r1\/1\/batchnorm\/mul_1:0",
      "top" : "generator\/G_MODEL\/C\/r1\/1\/batchnorm\/mul_1:0",
      "type" : "elementwise",
      "name" : "generator\/G_MODEL\/C\/r1\/1\/batchnorm\/mul_1:0",
      "beta" : 0
    },
    {
      "bottom" : "generator\/G_MODEL\/C\/r1\/1\/moments\/mean:0,generator\/G_MODEL\/C\/r1\/1\/batchnorm\/mul:0",
      "alpha" : 1,
      "operation" : 1,
      "weights" : {

      },
      "fused_relu" : 0,
      "debug_info" : "generator\/G_MODEL\/C\/r1\/1\/batchnorm\/mul_2:0",
      "top" : "generator\/G_MODEL\/C\/r1\/1\/batchnorm\/mul_2:0",
      "type" : "elementwise",
      "name" : "generator\/G_MODEL\/C\/r1\/1\/batchnorm\/mul_2:0",
      "beta" : 0
    },
    {
      "bottom" : "",
      "k" : 256,
      "n" : 1,
      "weights" : {

      },
      "h" : 1,
      "debug_info" : "generator\/G_MODEL\/C\/r1\/1\/beta\/read:0",
      "constant_blob" : 49,
      "top" : "generator\/G_MODEL\/C\/r1\/1\/beta\/read:0",
      "w" : 1,
      "type" : "load_constant",
      "name" : "generator\/G_MODEL\/C\/r1\/1\/beta\/read:0"
    },
    {
      "alpha" : -1,
      "bottom" : "generator\/G_MODEL\/C\/r1\/1\/batchnorm\/mul_2:0",
      "weights" : {

      },
      "mode" : 6,
      "debug_info" : "negated_generator\/G_MODEL\/C\/r1\/1\/batchnorm\/mul_2:0_generator\/G_MODEL\/C\/r1\/1\/batchnorm\/sub:0",
      "top" : "negated_generator\/G_MODEL\/C\/r1\/1\/batchnorm\/mul_2:0_generator\/G_MODEL\/C\/r1\/1\/batchnorm\/sub:0",
      "type" : "activation",
      "name" : "negated_generator\/G_MODEL\/C\/r1\/1\/batchnorm\/mul_2:0_generator\/G_MODEL\/C\/r1\/1\/batchnorm\/sub:0",
      "beta" : 0
    },
    {
      "bottom" : "generator\/G_MODEL\/C\/r1\/1\/beta\/read:0,negated_generator\/G_MODEL\/C\/r1\/1\/batchnorm\/mul_2:0_generator\/G_MODEL\/C\/r1\/1\/batchnorm\/sub:0",
      "alpha" : 1,
      "operation" : 0,
      "weights" : {

      },
      "fused_relu" : 0,
      "debug_info" : "generator\/G_MODEL\/C\/r1\/1\/batchnorm\/sub:0",
      "top" : "generator\/G_MODEL\/C\/r1\/1\/batchnorm\/sub:0",
      "type" : "elementwise",
      "name" : "generator\/G_MODEL\/C\/r1\/1\/batchnorm\/sub:0",
      "beta" : 0
    },
    {
      "bottom" : "generator\/G_MODEL\/C\/r1\/1\/batchnorm\/mul_1:0,generator\/G_MODEL\/C\/r1\/1\/batchnorm\/sub:0",
      "alpha" : 1,
      "operation" : 0,
      "weights" : {

      },
      "fused_relu" : 0,
      "debug_info" : "generator\/G_MODEL\/C\/r1\/1\/batchnorm\/add_1:0",
      "top" : "generator\/G_MODEL\/C\/r1\/1\/batchnorm\/add_1:0",
      "type" : "elementwise",
      "name" : "generator\/G_MODEL\/C\/r1\/1\/batchnorm\/add_1:0",
      "beta" : 0
    },
    {
      "bottom" : "generator\/G_MODEL\/C\/r1\/1\/batchnorm\/add_1:0",
      "alpha" : 0.20000000298023224,
      "operation" : 1,
      "weights" : {

      },
      "fused_relu" : 0,
      "debug_info" : "generator\/G_MODEL\/C\/r1\/LeakyRelu_1\/mul:0",
      "top" : "generator\/G_MODEL\/C\/r1\/LeakyRelu_1\/mul:0",
      "type" : "elementwise",
      "name" : "generator\/G_MODEL\/C\/r1\/LeakyRelu_1\/mul:0",
      "beta" : 0
    },
    {
      "bottom" : "generator\/G_MODEL\/C\/r1\/LeakyRelu_1\/mul:0,generator\/G_MODEL\/C\/r1\/1\/batchnorm\/add_1:0",
      "alpha" : 1,
      "operation" : 23,
      "weights" : {

      },
      "fused_relu" : 0,
      "debug_info" : "generator\/G_MODEL\/C\/r1\/LeakyRelu_1\/Maximum:0",
      "top" : "generator\/G_MODEL\/C\/r1\/LeakyRelu_1\/Maximum:0",
      "type" : "elementwise",
      "name" : "generator\/G_MODEL\/C\/r1\/LeakyRelu_1\/Maximum:0",
      "beta" : 0
    },
    {
      "pad_r" : 0,
      "fused_relu" : 0,
      "fused_tanh" : 0,
      "debug_info" : "generator\/G_MODEL\/C\/r1\/Conv_1\/Conv2D:0",
      "pad_fill_mode" : 0,
      "pad_b" : 0,
      "pad_l" : 0,
      "top" : "generator\/G_MODEL\/C\/r1\/Conv_1\/Conv2D:0",
      "blob_weights" : 51,
      "K" : 256,
      "name" : "generator\/G_MODEL\/C\/r1\/Conv_1\/Conv2D:0",
      "has_batch_norm" : 0,
      "type" : "convolution",
      "n_groups" : 1,
      "pad_t" : 0,
      "has_biases" : 0,
      "C" : 256,
      "bottom" : "generator\/G_MODEL\/C\/r1\/LeakyRelu_1\/Maximum:0",
      "weights" : {

      },
      "Nx" : 1,
      "pad_mode" : 0,
      "pad_value" : 0,
      "Ny" : 1,
      "n_parallel" : 1
    },
    {
      "bottom" : "generator\/G_MODEL\/C\/r1\/Conv_1\/Conv2D:0",
      "weights" : {

      },
      "mode" : 1,
      "debug_info" : "generator\/G_MODEL\/C\/r1\/2\/moments\/mean:0",
      "use_version" : 1,
      "top" : "generator\/G_MODEL\/C\/r1\/2\/moments\/mean:0",
      "type" : "reduce",
      "name" : "generator\/G_MODEL\/C\/r1\/2\/moments\/mean:0"
    },
    {
      "alpha" : -1,
      "bottom" : "generator\/G_MODEL\/C\/r1\/2\/moments\/mean:0",
      "weights" : {

      },
      "mode" : 6,
      "debug_info" : "negated_generator\/G_MODEL\/C\/r1\/2\/moments\/StopGradient:0_generator\/G_MODEL\/C\/r1\/2\/moments\/SquaredDifference:0_difference",
      "top" : "negated_generator\/G_MODEL\/C\/r1\/2\/moments\/StopGradient:0_generator\/G_MODEL\/C\/r1\/2\/moments\/SquaredDifference:0_difference",
      "type" : "activation",
      "name" : "negated_generator\/G_MODEL\/C\/r1\/2\/moments\/StopGradient:0_generator\/G_MODEL\/C\/r1\/2\/moments\/SquaredDifference:0_difference",
      "beta" : 0
    },
    {
      "bottom" : "generator\/G_MODEL\/C\/r1\/Conv_1\/Conv2D:0,negated_generator\/G_MODEL\/C\/r1\/2\/moments\/StopGradient:0_generator\/G_MODEL\/C\/r1\/2\/moments\/SquaredDifference:0_difference",
      "alpha" : 1,
      "operation" : 0,
      "weights" : {

      },
      "fused_relu" : 0,
      "debug_info" : "generator\/G_MODEL\/C\/r1\/2\/moments\/SquaredDifference:0_difference",
      "top" : "generator\/G_MODEL\/C\/r1\/2\/moments\/SquaredDifference:0_difference",
      "type" : "elementwise",
      "name" : "generator\/G_MODEL\/C\/r1\/2\/moments\/SquaredDifference:0_difference",
      "beta" : 0
    },
    {
      "bottom" : "generator\/G_MODEL\/C\/r1\/2\/moments\/SquaredDifference:0_difference,generator\/G_MODEL\/C\/r1\/2\/moments\/SquaredDifference:0_difference",
      "alpha" : 1,
      "operation" : 1,
      "weights" : {

      },
      "fused_relu" : 0,
      "debug_info" : "generator\/G_MODEL\/C\/r1\/2\/moments\/SquaredDifference:0",
      "top" : "generator\/G_MODEL\/C\/r1\/2\/moments\/SquaredDifference:0",
      "type" : "elementwise",
      "name" : "generator\/G_MODEL\/C\/r1\/2\/moments\/SquaredDifference:0",
      "beta" : 0
    },
    {
      "bottom" : "generator\/G_MODEL\/C\/r1\/2\/moments\/SquaredDifference:0",
      "weights" : {

      },
      "mode" : 1,
      "debug_info" : "generator\/G_MODEL\/C\/r1\/2\/moments\/variance:0",
      "use_version" : 1,
      "top" : "generator\/G_MODEL\/C\/r1\/2\/moments\/variance:0",
      "type" : "reduce",
      "name" : "generator\/G_MODEL\/C\/r1\/2\/moments\/variance:0"
    },
    {
      "bottom" : "generator\/G_MODEL\/C\/r1\/2\/moments\/variance:0",
      "alpha" : 9.999999960041972e-13,
      "operation" : 0,
      "weights" : {

      },
      "fused_relu" : 0,
      "debug_info" : "generator\/G_MODEL\/C\/r1\/2\/batchnorm\/add:0",
      "top" : "generator\/G_MODEL\/C\/r1\/2\/batchnorm\/add:0",
      "type" : "elementwise",
      "name" : "generator\/G_MODEL\/C\/r1\/2\/batchnorm\/add:0",
      "beta" : 0
    },
    {
      "bottom" : "generator\/G_MODEL\/C\/r1\/2\/batchnorm\/add:0",
      "alpha" : 1,
      "operation" : 12,
      "weights" : {

      },
      "fused_relu" : 0,
      "debug_info" : "generator\/G_MODEL\/C\/r1\/2\/batchnorm\/Rsqrt:0",
      "top" : "generator\/G_MODEL\/C\/r1\/2\/batchnorm\/Rsqrt:0",
      "type" : "elementwise",
      "name" : "generator\/G_MODEL\/C\/r1\/2\/batchnorm\/Rsqrt:0",
      "beta" : 0
    },
    {
      "bottom" : "",
      "k" : 256,
      "n" : 1,
      "weights" : {

      },
      "h" : 1,
      "debug_info" : "generator\/G_MODEL\/C\/r1\/2\/gamma\/read:0",
      "constant_blob" : 53,
      "top" : "generator\/G_MODEL\/C\/r1\/2\/gamma\/read:0",
      "w" : 1,
      "type" : "load_constant",
      "name" : "generator\/G_MODEL\/C\/r1\/2\/gamma\/read:0"
    },
    {
      "bottom" : "generator\/G_MODEL\/C\/r1\/2\/batchnorm\/Rsqrt:0,generator\/G_MODEL\/C\/r1\/2\/gamma\/read:0",
      "alpha" : 1,
      "operation" : 1,
      "weights" : {

      },
      "fused_relu" : 0,
      "debug_info" : "generator\/G_MODEL\/C\/r1\/2\/batchnorm\/mul:0",
      "top" : "generator\/G_MODEL\/C\/r1\/2\/batchnorm\/mul:0",
      "type" : "elementwise",
      "name" : "generator\/G_MODEL\/C\/r1\/2\/batchnorm\/mul:0",
      "beta" : 0
    },
    {
      "bottom" : "generator\/G_MODEL\/C\/r1\/Conv_1\/Conv2D:0,generator\/G_MODEL\/C\/r1\/2\/batchnorm\/mul:0",
      "alpha" : 1,
      "operation" : 1,
      "weights" : {

      },
      "fused_relu" : 0,
      "debug_info" : "generator\/G_MODEL\/C\/r1\/2\/batchnorm\/mul_1:0",
      "top" : "generator\/G_MODEL\/C\/r1\/2\/batchnorm\/mul_1:0",
      "type" : "elementwise",
      "name" : "generator\/G_MODEL\/C\/r1\/2\/batchnorm\/mul_1:0",
      "beta" : 0
    },
    {
      "bottom" : "generator\/G_MODEL\/C\/r1\/2\/moments\/mean:0,generator\/G_MODEL\/C\/r1\/2\/batchnorm\/mul:0",
      "alpha" : 1,
      "operation" : 1,
      "weights" : {

      },
      "fused_relu" : 0,
      "debug_info" : "generator\/G_MODEL\/C\/r1\/2\/batchnorm\/mul_2:0",
      "top" : "generator\/G_MODEL\/C\/r1\/2\/batchnorm\/mul_2:0",
      "type" : "elementwise",
      "name" : "generator\/G_MODEL\/C\/r1\/2\/batchnorm\/mul_2:0",
      "beta" : 0
    },
    {
      "bottom" : "",
      "k" : 256,
      "n" : 1,
      "weights" : {

      },
      "h" : 1,
      "debug_info" : "generator\/G_MODEL\/C\/r1\/2\/beta\/read:0",
      "constant_blob" : 55,
      "top" : "generator\/G_MODEL\/C\/r1\/2\/beta\/read:0",
      "w" : 1,
      "type" : "load_constant",
      "name" : "generator\/G_MODEL\/C\/r1\/2\/beta\/read:0"
    },
    {
      "alpha" : -1,
      "bottom" : "generator\/G_MODEL\/C\/r1\/2\/batchnorm\/mul_2:0",
      "weights" : {

      },
      "mode" : 6,
      "debug_info" : "negated_generator\/G_MODEL\/C\/r1\/2\/batchnorm\/mul_2:0_generator\/G_MODEL\/C\/r1\/2\/batchnorm\/sub:0",
      "top" : "negated_generator\/G_MODEL\/C\/r1\/2\/batchnorm\/mul_2:0_generator\/G_MODEL\/C\/r1\/2\/batchnorm\/sub:0",
      "type" : "activation",
      "name" : "negated_generator\/G_MODEL\/C\/r1\/2\/batchnorm\/mul_2:0_generator\/G_MODEL\/C\/r1\/2\/batchnorm\/sub:0",
      "beta" : 0
    },
    {
      "bottom" : "generator\/G_MODEL\/C\/r1\/2\/beta\/read:0,negated_generator\/G_MODEL\/C\/r1\/2\/batchnorm\/mul_2:0_generator\/G_MODEL\/C\/r1\/2\/batchnorm\/sub:0",
      "alpha" : 1,
      "operation" : 0,
      "weights" : {

      },
      "fused_relu" : 0,
      "debug_info" : "generator\/G_MODEL\/C\/r1\/2\/batchnorm\/sub:0",
      "top" : "generator\/G_MODEL\/C\/r1\/2\/batchnorm\/sub:0",
      "type" : "elementwise",
      "name" : "generator\/G_MODEL\/C\/r1\/2\/batchnorm\/sub:0",
      "beta" : 0
    },
    {
      "bottom" : "generator\/G_MODEL\/C\/r1\/2\/batchnorm\/mul_1:0,generator\/G_MODEL\/C\/r1\/2\/batchnorm\/sub:0",
      "alpha" : 1,
      "operation" : 0,
      "weights" : {

      },
      "fused_relu" : 0,
      "debug_info" : "generator\/G_MODEL\/C\/r1\/2\/batchnorm\/add_1:0",
      "top" : "generator\/G_MODEL\/C\/r1\/2\/batchnorm\/add_1:0",
      "type" : "elementwise",
      "name" : "generator\/G_MODEL\/C\/r1\/2\/batchnorm\/add_1:0",
      "beta" : 0
    },
    {
      "pad_r" : 0,
      "fused_relu" : 0,
      "fused_tanh" : 0,
      "debug_info" : "generator\/G_MODEL\/C\/r2\/Conv\/Conv2D:0",
      "pad_fill_mode" : 0,
      "pad_b" : 0,
      "pad_l" : 0,
      "top" : "generator\/G_MODEL\/C\/r2\/Conv\/Conv2D:0",
      "blob_weights" : 57,
      "K" : 256,
      "name" : "generator\/G_MODEL\/C\/r2\/Conv\/Conv2D:0",
      "has_batch_norm" : 0,
      "type" : "convolution",
      "n_groups" : 1,
      "pad_t" : 0,
      "has_biases" : 0,
      "C" : 512,
      "bottom" : "generator\/G_MODEL\/C\/r1\/2\/batchnorm\/add_1:0",
      "weights" : {

      },
      "Nx" : 1,
      "pad_mode" : 0,
      "pad_value" : 0,
      "Ny" : 1,
      "n_parallel" : 1
    },
    {
      "bottom" : "generator\/G_MODEL\/C\/r2\/Conv\/Conv2D:0",
      "weights" : {

      },
      "mode" : 1,
      "debug_info" : "generator\/G_MODEL\/C\/r2\/LayerNorm\/moments\/mean:0",
      "use_version" : 1,
      "top" : "generator\/G_MODEL\/C\/r2\/LayerNorm\/moments\/mean:0",
      "type" : "reduce",
      "name" : "generator\/G_MODEL\/C\/r2\/LayerNorm\/moments\/mean:0"
    },
    {
      "alpha" : -1,
      "bottom" : "generator\/G_MODEL\/C\/r2\/LayerNorm\/moments\/mean:0",
      "weights" : {

      },
      "mode" : 6,
      "debug_info" : "negated_generator\/G_MODEL\/C\/r2\/LayerNorm\/moments\/StopGradient:0_generator\/G_MODEL\/C\/r2\/LayerNorm\/moments\/SquaredDifference:0_difference",
      "top" : "negated_generator\/G_MODEL\/C\/r2\/LayerNorm\/moments\/StopGradient:0_generator\/G_MODEL\/C\/r2\/LayerNorm\/moments\/SquaredDifference:0_difference",
      "type" : "activation",
      "name" : "negated_generator\/G_MODEL\/C\/r2\/LayerNorm\/moments\/StopGradient:0_generator\/G_MODEL\/C\/r2\/LayerNorm\/moments\/SquaredDifference:0_difference",
      "beta" : 0
    },
    {
      "bottom" : "generator\/G_MODEL\/C\/r2\/Conv\/Conv2D:0,negated_generator\/G_MODEL\/C\/r2\/LayerNorm\/moments\/StopGradient:0_generator\/G_MODEL\/C\/r2\/LayerNorm\/moments\/SquaredDifference:0_difference",
      "alpha" : 1,
      "operation" : 0,
      "weights" : {

      },
      "fused_relu" : 0,
      "debug_info" : "generator\/G_MODEL\/C\/r2\/LayerNorm\/moments\/SquaredDifference:0_difference",
      "top" : "generator\/G_MODEL\/C\/r2\/LayerNorm\/moments\/SquaredDifference:0_difference",
      "type" : "elementwise",
      "name" : "generator\/G_MODEL\/C\/r2\/LayerNorm\/moments\/SquaredDifference:0_difference",
      "beta" : 0
    },
    {
      "bottom" : "generator\/G_MODEL\/C\/r2\/LayerNorm\/moments\/SquaredDifference:0_difference,generator\/G_MODEL\/C\/r2\/LayerNorm\/moments\/SquaredDifference:0_difference",
      "alpha" : 1,
      "operation" : 1,
      "weights" : {

      },
      "fused_relu" : 0,
      "debug_info" : "generator\/G_MODEL\/C\/r2\/LayerNorm\/moments\/SquaredDifference:0",
      "top" : "generator\/G_MODEL\/C\/r2\/LayerNorm\/moments\/SquaredDifference:0",
      "type" : "elementwise",
      "name" : "generator\/G_MODEL\/C\/r2\/LayerNorm\/moments\/SquaredDifference:0",
      "beta" : 0
    },
    {
      "bottom" : "generator\/G_MODEL\/C\/r2\/LayerNorm\/moments\/SquaredDifference:0",
      "weights" : {

      },
      "mode" : 1,
      "debug_info" : "generator\/G_MODEL\/C\/r2\/LayerNorm\/moments\/variance:0",
      "use_version" : 1,
      "top" : "generator\/G_MODEL\/C\/r2\/LayerNorm\/moments\/variance:0",
      "type" : "reduce",
      "name" : "generator\/G_MODEL\/C\/r2\/LayerNorm\/moments\/variance:0"
    },
    {
      "bottom" : "generator\/G_MODEL\/C\/r2\/LayerNorm\/moments\/variance:0",
      "alpha" : 9.999999960041972e-13,
      "operation" : 0,
      "weights" : {

      },
      "fused_relu" : 0,
      "debug_info" : "generator\/G_MODEL\/C\/r2\/LayerNorm\/batchnorm\/add:0",
      "top" : "generator\/G_MODEL\/C\/r2\/LayerNorm\/batchnorm\/add:0",
      "type" : "elementwise",
      "name" : "generator\/G_MODEL\/C\/r2\/LayerNorm\/batchnorm\/add:0",
      "beta" : 0
    },
    {
      "bottom" : "generator\/G_MODEL\/C\/r2\/LayerNorm\/batchnorm\/add:0",
      "alpha" : 1,
      "operation" : 12,
      "weights" : {

      },
      "fused_relu" : 0,
      "debug_info" : "generator\/G_MODEL\/C\/r2\/LayerNorm\/batchnorm\/Rsqrt:0",
      "top" : "generator\/G_MODEL\/C\/r2\/LayerNorm\/batchnorm\/Rsqrt:0",
      "type" : "elementwise",
      "name" : "generator\/G_MODEL\/C\/r2\/LayerNorm\/batchnorm\/Rsqrt:0",
      "beta" : 0
    },
    {
      "bottom" : "",
      "k" : 512,
      "n" : 1,
      "weights" : {

      },
      "h" : 1,
      "debug_info" : "generator\/G_MODEL\/C\/r2\/LayerNorm\/gamma\/read:0",
      "constant_blob" : 59,
      "top" : "generator\/G_MODEL\/C\/r2\/LayerNorm\/gamma\/read:0",
      "w" : 1,
      "type" : "load_constant",
      "name" : "generator\/G_MODEL\/C\/r2\/LayerNorm\/gamma\/read:0"
    },
    {
      "bottom" : "generator\/G_MODEL\/C\/r2\/LayerNorm\/batchnorm\/Rsqrt:0,generator\/G_MODEL\/C\/r2\/LayerNorm\/gamma\/read:0",
      "alpha" : 1,
      "operation" : 1,
      "weights" : {

      },
      "fused_relu" : 0,
      "debug_info" : "generator\/G_MODEL\/C\/r2\/LayerNorm\/batchnorm\/mul:0",
      "top" : "generator\/G_MODEL\/C\/r2\/LayerNorm\/batchnorm\/mul:0",
      "type" : "elementwise",
      "name" : "generator\/G_MODEL\/C\/r2\/LayerNorm\/batchnorm\/mul:0",
      "beta" : 0
    },
    {
      "bottom" : "generator\/G_MODEL\/C\/r2\/Conv\/Conv2D:0,generator\/G_MODEL\/C\/r2\/LayerNorm\/batchnorm\/mul:0",
      "alpha" : 1,
      "operation" : 1,
      "weights" : {

      },
      "fused_relu" : 0,
      "debug_info" : "generator\/G_MODEL\/C\/r2\/LayerNorm\/batchnorm\/mul_1:0",
      "top" : "generator\/G_MODEL\/C\/r2\/LayerNorm\/batchnorm\/mul_1:0",
      "type" : "elementwise",
      "name" : "generator\/G_MODEL\/C\/r2\/LayerNorm\/batchnorm\/mul_1:0",
      "beta" : 0
    },
    {
      "bottom" : "generator\/G_MODEL\/C\/r2\/LayerNorm\/moments\/mean:0,generator\/G_MODEL\/C\/r2\/LayerNorm\/batchnorm\/mul:0",
      "alpha" : 1,
      "operation" : 1,
      "weights" : {

      },
      "fused_relu" : 0,
      "debug_info" : "generator\/G_MODEL\/C\/r2\/LayerNorm\/batchnorm\/mul_2:0",
      "top" : "generator\/G_MODEL\/C\/r2\/LayerNorm\/batchnorm\/mul_2:0",
      "type" : "elementwise",
      "name" : "generator\/G_MODEL\/C\/r2\/LayerNorm\/batchnorm\/mul_2:0",
      "beta" : 0
    },
    {
      "bottom" : "",
      "k" : 512,
      "n" : 1,
      "weights" : {

      },
      "h" : 1,
      "debug_info" : "generator\/G_MODEL\/C\/r2\/LayerNorm\/beta\/read:0",
      "constant_blob" : 61,
      "top" : "generator\/G_MODEL\/C\/r2\/LayerNorm\/beta\/read:0",
      "w" : 1,
      "type" : "load_constant",
      "name" : "generator\/G_MODEL\/C\/r2\/LayerNorm\/beta\/read:0"
    },
    {
      "alpha" : -1,
      "bottom" : "generator\/G_MODEL\/C\/r2\/LayerNorm\/batchnorm\/mul_2:0",
      "weights" : {

      },
      "mode" : 6,
      "debug_info" : "negated_generator\/G_MODEL\/C\/r2\/LayerNorm\/batchnorm\/mul_2:0_generator\/G_MODEL\/C\/r2\/LayerNorm\/batchnorm\/sub:0",
      "top" : "negated_generator\/G_MODEL\/C\/r2\/LayerNorm\/batchnorm\/mul_2:0_generator\/G_MODEL\/C\/r2\/LayerNorm\/batchnorm\/sub:0",
      "type" : "activation",
      "name" : "negated_generator\/G_MODEL\/C\/r2\/LayerNorm\/batchnorm\/mul_2:0_generator\/G_MODEL\/C\/r2\/LayerNorm\/batchnorm\/sub:0",
      "beta" : 0
    },
    {
      "bottom" : "generator\/G_MODEL\/C\/r2\/LayerNorm\/beta\/read:0,negated_generator\/G_MODEL\/C\/r2\/LayerNorm\/batchnorm\/mul_2:0_generator\/G_MODEL\/C\/r2\/LayerNorm\/batchnorm\/sub:0",
      "alpha" : 1,
      "operation" : 0,
      "weights" : {

      },
      "fused_relu" : 0,
      "debug_info" : "generator\/G_MODEL\/C\/r2\/LayerNorm\/batchnorm\/sub:0",
      "top" : "generator\/G_MODEL\/C\/r2\/LayerNorm\/batchnorm\/sub:0",
      "type" : "elementwise",
      "name" : "generator\/G_MODEL\/C\/r2\/LayerNorm\/batchnorm\/sub:0",
      "beta" : 0
    },
    {
      "bottom" : "generator\/G_MODEL\/C\/r2\/LayerNorm\/batchnorm\/mul_1:0,generator\/G_MODEL\/C\/r2\/LayerNorm\/batchnorm\/sub:0",
      "alpha" : 1,
      "operation" : 0,
      "weights" : {

      },
      "fused_relu" : 0,
      "debug_info" : "generator\/G_MODEL\/C\/r2\/LayerNorm\/batchnorm\/add_1:0",
      "top" : "generator\/G_MODEL\/C\/r2\/LayerNorm\/batchnorm\/add_1:0",
      "type" : "elementwise",
      "name" : "generator\/G_MODEL\/C\/r2\/LayerNorm\/batchnorm\/add_1:0",
      "beta" : 0
    },
    {
      "bottom" : "generator\/G_MODEL\/C\/r2\/LayerNorm\/batchnorm\/add_1:0",
      "alpha" : 0.20000000298023224,
      "operation" : 1,
      "weights" : {

      },
      "fused_relu" : 0,
      "debug_info" : "generator\/G_MODEL\/C\/r2\/LeakyRelu\/mul:0",
      "top" : "generator\/G_MODEL\/C\/r2\/LeakyRelu\/mul:0",
      "type" : "elementwise",
      "name" : "generator\/G_MODEL\/C\/r2\/LeakyRelu\/mul:0",
      "beta" : 0
    },
    {
      "bottom" : "generator\/G_MODEL\/C\/r2\/LeakyRelu\/mul:0,generator\/G_MODEL\/C\/r2\/LayerNorm\/batchnorm\/add_1:0",
      "alpha" : 1,
      "operation" : 23,
      "weights" : {

      },
      "fused_relu" : 0,
      "debug_info" : "generator\/G_MODEL\/C\/r2\/LeakyRelu\/Maximum:0",
      "top" : "generator\/G_MODEL\/C\/r2\/LeakyRelu\/Maximum:0",
      "type" : "elementwise",
      "name" : "generator\/G_MODEL\/C\/r2\/LeakyRelu\/Maximum:0",
      "beta" : 0
    },
    {
      "name" : "generator\/G_MODEL\/C\/r2\/MirrorPad:0",
      "weights" : {

      },
      "pad_pad_mode" : 0,
      "pad_t" : 1,
      "pad_r" : 1,
      "pad_b" : 1,
      "type" : "general_padding",
      "pad_fill_mode" : 2,
      "bottom" : "generator\/G_MODEL\/C\/r2\/LeakyRelu\/Maximum:0",
      "pad_l" : 1,
      "debug_info" : "generator\/G_MODEL\/C\/r2\/MirrorPad:0",
      "pad_value" : 0,
      "top" : "generator\/G_MODEL\/C\/r2\/MirrorPad:0"
    },
    {
      "pad_r" : 0,
      "fused_relu" : 0,
      "fused_tanh" : 0,
      "debug_info" : "generator\/G_MODEL\/C\/r2\/r2\/r2:0",
      "pad_fill_mode" : 0,
      "pad_b" : 0,
      "pad_l" : 0,
      "top" : "generator\/G_MODEL\/C\/r2\/r2\/BiasAdd:0",
      "blob_weights" : 65,
      "K" : 512,
      "blob_biases" : 63,
      "name" : "generator\/G_MODEL\/C\/r2\/r2\/r2:0",
      "has_batch_norm" : 0,
      "type" : "convolution",
      "n_groups" : 512,
      "pad_t" : 0,
      "has_biases" : 1,
      "C" : 512,
      "bottom" : "generator\/G_MODEL\/C\/r2\/MirrorPad:0",
      "weights" : {

      },
      "Nx" : 3,
      "pad_mode" : 0,
      "pad_value" : 0,
      "Ny" : 3,
      "n_parallel" : 1
    },
    {
      "bottom" : "generator\/G_MODEL\/C\/r2\/r2\/BiasAdd:0",
      "weights" : {

      },
      "mode" : 1,
      "debug_info" : "generator\/G_MODEL\/C\/r2\/1\/moments\/mean:0",
      "use_version" : 1,
      "top" : "generator\/G_MODEL\/C\/r2\/1\/moments\/mean:0",
      "type" : "reduce",
      "name" : "generator\/G_MODEL\/C\/r2\/1\/moments\/mean:0"
    },
    {
      "alpha" : -1,
      "bottom" : "generator\/G_MODEL\/C\/r2\/1\/moments\/mean:0",
      "weights" : {

      },
      "mode" : 6,
      "debug_info" : "negated_generator\/G_MODEL\/C\/r2\/1\/moments\/StopGradient:0_generator\/G_MODEL\/C\/r2\/1\/moments\/SquaredDifference:0_difference",
      "top" : "negated_generator\/G_MODEL\/C\/r2\/1\/moments\/StopGradient:0_generator\/G_MODEL\/C\/r2\/1\/moments\/SquaredDifference:0_difference",
      "type" : "activation",
      "name" : "negated_generator\/G_MODEL\/C\/r2\/1\/moments\/StopGradient:0_generator\/G_MODEL\/C\/r2\/1\/moments\/SquaredDifference:0_difference",
      "beta" : 0
    },
    {
      "bottom" : "generator\/G_MODEL\/C\/r2\/r2\/BiasAdd:0,negated_generator\/G_MODEL\/C\/r2\/1\/moments\/StopGradient:0_generator\/G_MODEL\/C\/r2\/1\/moments\/SquaredDifference:0_difference",
      "alpha" : 1,
      "operation" : 0,
      "weights" : {

      },
      "fused_relu" : 0,
      "debug_info" : "generator\/G_MODEL\/C\/r2\/1\/moments\/SquaredDifference:0_difference",
      "top" : "generator\/G_MODEL\/C\/r2\/1\/moments\/SquaredDifference:0_difference",
      "type" : "elementwise",
      "name" : "generator\/G_MODEL\/C\/r2\/1\/moments\/SquaredDifference:0_difference",
      "beta" : 0
    },
    {
      "bottom" : "generator\/G_MODEL\/C\/r2\/1\/moments\/SquaredDifference:0_difference,generator\/G_MODEL\/C\/r2\/1\/moments\/SquaredDifference:0_difference",
      "alpha" : 1,
      "operation" : 1,
      "weights" : {

      },
      "fused_relu" : 0,
      "debug_info" : "generator\/G_MODEL\/C\/r2\/1\/moments\/SquaredDifference:0",
      "top" : "generator\/G_MODEL\/C\/r2\/1\/moments\/SquaredDifference:0",
      "type" : "elementwise",
      "name" : "generator\/G_MODEL\/C\/r2\/1\/moments\/SquaredDifference:0",
      "beta" : 0
    },
    {
      "bottom" : "generator\/G_MODEL\/C\/r2\/1\/moments\/SquaredDifference:0",
      "weights" : {

      },
      "mode" : 1,
      "debug_info" : "generator\/G_MODEL\/C\/r2\/1\/moments\/variance:0",
      "use_version" : 1,
      "top" : "generator\/G_MODEL\/C\/r2\/1\/moments\/variance:0",
      "type" : "reduce",
      "name" : "generator\/G_MODEL\/C\/r2\/1\/moments\/variance:0"
    },
    {
      "bottom" : "generator\/G_MODEL\/C\/r2\/1\/moments\/variance:0",
      "alpha" : 9.999999960041972e-13,
      "operation" : 0,
      "weights" : {

      },
      "fused_relu" : 0,
      "debug_info" : "generator\/G_MODEL\/C\/r2\/1\/batchnorm\/add:0",
      "top" : "generator\/G_MODEL\/C\/r2\/1\/batchnorm\/add:0",
      "type" : "elementwise",
      "name" : "generator\/G_MODEL\/C\/r2\/1\/batchnorm\/add:0",
      "beta" : 0
    },
    {
      "bottom" : "generator\/G_MODEL\/C\/r2\/1\/batchnorm\/add:0",
      "alpha" : 1,
      "operation" : 12,
      "weights" : {

      },
      "fused_relu" : 0,
      "debug_info" : "generator\/G_MODEL\/C\/r2\/1\/batchnorm\/Rsqrt:0",
      "top" : "generator\/G_MODEL\/C\/r2\/1\/batchnorm\/Rsqrt:0",
      "type" : "elementwise",
      "name" : "generator\/G_MODEL\/C\/r2\/1\/batchnorm\/Rsqrt:0",
      "beta" : 0
    },
    {
      "bottom" : "",
      "k" : 512,
      "n" : 1,
      "weights" : {

      },
      "h" : 1,
      "debug_info" : "generator\/G_MODEL\/C\/r2\/1\/gamma\/read:0",
      "constant_blob" : 67,
      "top" : "generator\/G_MODEL\/C\/r2\/1\/gamma\/read:0",
      "w" : 1,
      "type" : "load_constant",
      "name" : "generator\/G_MODEL\/C\/r2\/1\/gamma\/read:0"
    },
    {
      "bottom" : "generator\/G_MODEL\/C\/r2\/1\/batchnorm\/Rsqrt:0,generator\/G_MODEL\/C\/r2\/1\/gamma\/read:0",
      "alpha" : 1,
      "operation" : 1,
      "weights" : {

      },
      "fused_relu" : 0,
      "debug_info" : "generator\/G_MODEL\/C\/r2\/1\/batchnorm\/mul:0",
      "top" : "generator\/G_MODEL\/C\/r2\/1\/batchnorm\/mul:0",
      "type" : "elementwise",
      "name" : "generator\/G_MODEL\/C\/r2\/1\/batchnorm\/mul:0",
      "beta" : 0
    },
    {
      "bottom" : "generator\/G_MODEL\/C\/r2\/r2\/BiasAdd:0,generator\/G_MODEL\/C\/r2\/1\/batchnorm\/mul:0",
      "alpha" : 1,
      "operation" : 1,
      "weights" : {

      },
      "fused_relu" : 0,
      "debug_info" : "generator\/G_MODEL\/C\/r2\/1\/batchnorm\/mul_1:0",
      "top" : "generator\/G_MODEL\/C\/r2\/1\/batchnorm\/mul_1:0",
      "type" : "elementwise",
      "name" : "generator\/G_MODEL\/C\/r2\/1\/batchnorm\/mul_1:0",
      "beta" : 0
    },
    {
      "bottom" : "generator\/G_MODEL\/C\/r2\/1\/moments\/mean:0,generator\/G_MODEL\/C\/r2\/1\/batchnorm\/mul:0",
      "alpha" : 1,
      "operation" : 1,
      "weights" : {

      },
      "fused_relu" : 0,
      "debug_info" : "generator\/G_MODEL\/C\/r2\/1\/batchnorm\/mul_2:0",
      "top" : "generator\/G_MODEL\/C\/r2\/1\/batchnorm\/mul_2:0",
      "type" : "elementwise",
      "name" : "generator\/G_MODEL\/C\/r2\/1\/batchnorm\/mul_2:0",
      "beta" : 0
    },
    {
      "bottom" : "",
      "k" : 512,
      "n" : 1,
      "weights" : {

      },
      "h" : 1,
      "debug_info" : "generator\/G_MODEL\/C\/r2\/1\/beta\/read:0",
      "constant_blob" : 69,
      "top" : "generator\/G_MODEL\/C\/r2\/1\/beta\/read:0",
      "w" : 1,
      "type" : "load_constant",
      "name" : "generator\/G_MODEL\/C\/r2\/1\/beta\/read:0"
    },
    {
      "alpha" : -1,
      "bottom" : "generator\/G_MODEL\/C\/r2\/1\/batchnorm\/mul_2:0",
      "weights" : {

      },
      "mode" : 6,
      "debug_info" : "negated_generator\/G_MODEL\/C\/r2\/1\/batchnorm\/mul_2:0_generator\/G_MODEL\/C\/r2\/1\/batchnorm\/sub:0",
      "top" : "negated_generator\/G_MODEL\/C\/r2\/1\/batchnorm\/mul_2:0_generator\/G_MODEL\/C\/r2\/1\/batchnorm\/sub:0",
      "type" : "activation",
      "name" : "negated_generator\/G_MODEL\/C\/r2\/1\/batchnorm\/mul_2:0_generator\/G_MODEL\/C\/r2\/1\/batchnorm\/sub:0",
      "beta" : 0
    },
    {
      "bottom" : "generator\/G_MODEL\/C\/r2\/1\/beta\/read:0,negated_generator\/G_MODEL\/C\/r2\/1\/batchnorm\/mul_2:0_generator\/G_MODEL\/C\/r2\/1\/batchnorm\/sub:0",
      "alpha" : 1,
      "operation" : 0,
      "weights" : {

      },
      "fused_relu" : 0,
      "debug_info" : "generator\/G_MODEL\/C\/r2\/1\/batchnorm\/sub:0",
      "top" : "generator\/G_MODEL\/C\/r2\/1\/batchnorm\/sub:0",
      "type" : "elementwise",
      "name" : "generator\/G_MODEL\/C\/r2\/1\/batchnorm\/sub:0",
      "beta" : 0
    },
    {
      "bottom" : "generator\/G_MODEL\/C\/r2\/1\/batchnorm\/mul_1:0,generator\/G_MODEL\/C\/r2\/1\/batchnorm\/sub:0",
      "alpha" : 1,
      "operation" : 0,
      "weights" : {

      },
      "fused_relu" : 0,
      "debug_info" : "generator\/G_MODEL\/C\/r2\/1\/batchnorm\/add_1:0",
      "top" : "generator\/G_MODEL\/C\/r2\/1\/batchnorm\/add_1:0",
      "type" : "elementwise",
      "name" : "generator\/G_MODEL\/C\/r2\/1\/batchnorm\/add_1:0",
      "beta" : 0
    },
    {
      "bottom" : "generator\/G_MODEL\/C\/r2\/1\/batchnorm\/add_1:0",
      "alpha" : 0.20000000298023224,
      "operation" : 1,
      "weights" : {

      },
      "fused_relu" : 0,
      "debug_info" : "generator\/G_MODEL\/C\/r2\/LeakyRelu_1\/mul:0",
      "top" : "generator\/G_MODEL\/C\/r2\/LeakyRelu_1\/mul:0",
      "type" : "elementwise",
      "name" : "generator\/G_MODEL\/C\/r2\/LeakyRelu_1\/mul:0",
      "beta" : 0
    },
    {
      "bottom" : "generator\/G_MODEL\/C\/r2\/LeakyRelu_1\/mul:0,generator\/G_MODEL\/C\/r2\/1\/batchnorm\/add_1:0",
      "alpha" : 1,
      "operation" : 23,
      "weights" : {

      },
      "fused_relu" : 0,
      "debug_info" : "generator\/G_MODEL\/C\/r2\/LeakyRelu_1\/Maximum:0",
      "top" : "generator\/G_MODEL\/C\/r2\/LeakyRelu_1\/Maximum:0",
      "type" : "elementwise",
      "name" : "generator\/G_MODEL\/C\/r2\/LeakyRelu_1\/Maximum:0",
      "beta" : 0
    },
    {
      "pad_r" : 0,
      "fused_relu" : 0,
      "fused_tanh" : 0,
      "debug_info" : "generator\/G_MODEL\/C\/r2\/Conv_1\/Conv2D:0",
      "pad_fill_mode" : 0,
      "pad_b" : 0,
      "pad_l" : 0,
      "top" : "generator\/G_MODEL\/C\/r2\/Conv_1\/Conv2D:0",
      "blob_weights" : 71,
      "K" : 512,
      "name" : "generator\/G_MODEL\/C\/r2\/Conv_1\/Conv2D:0",
      "has_batch_norm" : 0,
      "type" : "convolution",
      "n_groups" : 1,
      "pad_t" : 0,
      "has_biases" : 0,
      "C" : 256,
      "bottom" : "generator\/G_MODEL\/C\/r2\/LeakyRelu_1\/Maximum:0",
      "weights" : {

      },
      "Nx" : 1,
      "pad_mode" : 0,
      "pad_value" : 0,
      "Ny" : 1,
      "n_parallel" : 1
    },
    {
      "bottom" : "generator\/G_MODEL\/C\/r2\/Conv_1\/Conv2D:0",
      "weights" : {

      },
      "mode" : 1,
      "debug_info" : "generator\/G_MODEL\/C\/r2\/2\/moments\/mean:0",
      "use_version" : 1,
      "top" : "generator\/G_MODEL\/C\/r2\/2\/moments\/mean:0",
      "type" : "reduce",
      "name" : "generator\/G_MODEL\/C\/r2\/2\/moments\/mean:0"
    },
    {
      "alpha" : -1,
      "bottom" : "generator\/G_MODEL\/C\/r2\/2\/moments\/mean:0",
      "weights" : {

      },
      "mode" : 6,
      "debug_info" : "negated_generator\/G_MODEL\/C\/r2\/2\/moments\/StopGradient:0_generator\/G_MODEL\/C\/r2\/2\/moments\/SquaredDifference:0_difference",
      "top" : "negated_generator\/G_MODEL\/C\/r2\/2\/moments\/StopGradient:0_generator\/G_MODEL\/C\/r2\/2\/moments\/SquaredDifference:0_difference",
      "type" : "activation",
      "name" : "negated_generator\/G_MODEL\/C\/r2\/2\/moments\/StopGradient:0_generator\/G_MODEL\/C\/r2\/2\/moments\/SquaredDifference:0_difference",
      "beta" : 0
    },
    {
      "bottom" : "generator\/G_MODEL\/C\/r2\/Conv_1\/Conv2D:0,negated_generator\/G_MODEL\/C\/r2\/2\/moments\/StopGradient:0_generator\/G_MODEL\/C\/r2\/2\/moments\/SquaredDifference:0_difference",
      "alpha" : 1,
      "operation" : 0,
      "weights" : {

      },
      "fused_relu" : 0,
      "debug_info" : "generator\/G_MODEL\/C\/r2\/2\/moments\/SquaredDifference:0_difference",
      "top" : "generator\/G_MODEL\/C\/r2\/2\/moments\/SquaredDifference:0_difference",
      "type" : "elementwise",
      "name" : "generator\/G_MODEL\/C\/r2\/2\/moments\/SquaredDifference:0_difference",
      "beta" : 0
    },
    {
      "bottom" : "generator\/G_MODEL\/C\/r2\/2\/moments\/SquaredDifference:0_difference,generator\/G_MODEL\/C\/r2\/2\/moments\/SquaredDifference:0_difference",
      "alpha" : 1,
      "operation" : 1,
      "weights" : {

      },
      "fused_relu" : 0,
      "debug_info" : "generator\/G_MODEL\/C\/r2\/2\/moments\/SquaredDifference:0",
      "top" : "generator\/G_MODEL\/C\/r2\/2\/moments\/SquaredDifference:0",
      "type" : "elementwise",
      "name" : "generator\/G_MODEL\/C\/r2\/2\/moments\/SquaredDifference:0",
      "beta" : 0
    },
    {
      "bottom" : "generator\/G_MODEL\/C\/r2\/2\/moments\/SquaredDifference:0",
      "weights" : {

      },
      "mode" : 1,
      "debug_info" : "generator\/G_MODEL\/C\/r2\/2\/moments\/variance:0",
      "use_version" : 1,
      "top" : "generator\/G_MODEL\/C\/r2\/2\/moments\/variance:0",
      "type" : "reduce",
      "name" : "generator\/G_MODEL\/C\/r2\/2\/moments\/variance:0"
    },
    {
      "bottom" : "generator\/G_MODEL\/C\/r2\/2\/moments\/variance:0",
      "alpha" : 9.999999960041972e-13,
      "operation" : 0,
      "weights" : {

      },
      "fused_relu" : 0,
      "debug_info" : "generator\/G_MODEL\/C\/r2\/2\/batchnorm\/add:0",
      "top" : "generator\/G_MODEL\/C\/r2\/2\/batchnorm\/add:0",
      "type" : "elementwise",
      "name" : "generator\/G_MODEL\/C\/r2\/2\/batchnorm\/add:0",
      "beta" : 0
    },
    {
      "bottom" : "generator\/G_MODEL\/C\/r2\/2\/batchnorm\/add:0",
      "alpha" : 1,
      "operation" : 12,
      "weights" : {

      },
      "fused_relu" : 0,
      "debug_info" : "generator\/G_MODEL\/C\/r2\/2\/batchnorm\/Rsqrt:0",
      "top" : "generator\/G_MODEL\/C\/r2\/2\/batchnorm\/Rsqrt:0",
      "type" : "elementwise",
      "name" : "generator\/G_MODEL\/C\/r2\/2\/batchnorm\/Rsqrt:0",
      "beta" : 0
    },
    {
      "bottom" : "",
      "k" : 256,
      "n" : 1,
      "weights" : {

      },
      "h" : 1,
      "debug_info" : "generator\/G_MODEL\/C\/r2\/2\/gamma\/read:0",
      "constant_blob" : 73,
      "top" : "generator\/G_MODEL\/C\/r2\/2\/gamma\/read:0",
      "w" : 1,
      "type" : "load_constant",
      "name" : "generator\/G_MODEL\/C\/r2\/2\/gamma\/read:0"
    },
    {
      "bottom" : "generator\/G_MODEL\/C\/r2\/2\/batchnorm\/Rsqrt:0,generator\/G_MODEL\/C\/r2\/2\/gamma\/read:0",
      "alpha" : 1,
      "operation" : 1,
      "weights" : {

      },
      "fused_relu" : 0,
      "debug_info" : "generator\/G_MODEL\/C\/r2\/2\/batchnorm\/mul:0",
      "top" : "generator\/G_MODEL\/C\/r2\/2\/batchnorm\/mul:0",
      "type" : "elementwise",
      "name" : "generator\/G_MODEL\/C\/r2\/2\/batchnorm\/mul:0",
      "beta" : 0
    },
    {
      "bottom" : "generator\/G_MODEL\/C\/r2\/Conv_1\/Conv2D:0,generator\/G_MODEL\/C\/r2\/2\/batchnorm\/mul:0",
      "alpha" : 1,
      "operation" : 1,
      "weights" : {

      },
      "fused_relu" : 0,
      "debug_info" : "generator\/G_MODEL\/C\/r2\/2\/batchnorm\/mul_1:0",
      "top" : "generator\/G_MODEL\/C\/r2\/2\/batchnorm\/mul_1:0",
      "type" : "elementwise",
      "name" : "generator\/G_MODEL\/C\/r2\/2\/batchnorm\/mul_1:0",
      "beta" : 0
    },
    {
      "bottom" : "generator\/G_MODEL\/C\/r2\/2\/moments\/mean:0,generator\/G_MODEL\/C\/r2\/2\/batchnorm\/mul:0",
      "alpha" : 1,
      "operation" : 1,
      "weights" : {

      },
      "fused_relu" : 0,
      "debug_info" : "generator\/G_MODEL\/C\/r2\/2\/batchnorm\/mul_2:0",
      "top" : "generator\/G_MODEL\/C\/r2\/2\/batchnorm\/mul_2:0",
      "type" : "elementwise",
      "name" : "generator\/G_MODEL\/C\/r2\/2\/batchnorm\/mul_2:0",
      "beta" : 0
    },
    {
      "bottom" : "",
      "k" : 256,
      "n" : 1,
      "weights" : {

      },
      "h" : 1,
      "debug_info" : "generator\/G_MODEL\/C\/r2\/2\/beta\/read:0",
      "constant_blob" : 75,
      "top" : "generator\/G_MODEL\/C\/r2\/2\/beta\/read:0",
      "w" : 1,
      "type" : "load_constant",
      "name" : "generator\/G_MODEL\/C\/r2\/2\/beta\/read:0"
    },
    {
      "alpha" : -1,
      "bottom" : "generator\/G_MODEL\/C\/r2\/2\/batchnorm\/mul_2:0",
      "weights" : {

      },
      "mode" : 6,
      "debug_info" : "negated_generator\/G_MODEL\/C\/r2\/2\/batchnorm\/mul_2:0_generator\/G_MODEL\/C\/r2\/2\/batchnorm\/sub:0",
      "top" : "negated_generator\/G_MODEL\/C\/r2\/2\/batchnorm\/mul_2:0_generator\/G_MODEL\/C\/r2\/2\/batchnorm\/sub:0",
      "type" : "activation",
      "name" : "negated_generator\/G_MODEL\/C\/r2\/2\/batchnorm\/mul_2:0_generator\/G_MODEL\/C\/r2\/2\/batchnorm\/sub:0",
      "beta" : 0
    },
    {
      "bottom" : "generator\/G_MODEL\/C\/r2\/2\/beta\/read:0,negated_generator\/G_MODEL\/C\/r2\/2\/batchnorm\/mul_2:0_generator\/G_MODEL\/C\/r2\/2\/batchnorm\/sub:0",
      "alpha" : 1,
      "operation" : 0,
      "weights" : {

      },
      "fused_relu" : 0,
      "debug_info" : "generator\/G_MODEL\/C\/r2\/2\/batchnorm\/sub:0",
      "top" : "generator\/G_MODEL\/C\/r2\/2\/batchnorm\/sub:0",
      "type" : "elementwise",
      "name" : "generator\/G_MODEL\/C\/r2\/2\/batchnorm\/sub:0",
      "beta" : 0
    },
    {
      "bottom" : "generator\/G_MODEL\/C\/r2\/2\/batchnorm\/mul_1:0,generator\/G_MODEL\/C\/r2\/2\/batchnorm\/sub:0",
      "alpha" : 1,
      "operation" : 0,
      "weights" : {

      },
      "fused_relu" : 0,
      "debug_info" : "generator\/G_MODEL\/C\/r2\/2\/batchnorm\/add_1:0",
      "top" : "generator\/G_MODEL\/C\/r2\/2\/batchnorm\/add_1:0",
      "type" : "elementwise",
      "name" : "generator\/G_MODEL\/C\/r2\/2\/batchnorm\/add_1:0",
      "beta" : 0
    },
    {
      "bottom" : "generator\/G_MODEL\/C\/r1\/2\/batchnorm\/add_1:0,generator\/G_MODEL\/C\/r2\/2\/batchnorm\/add_1:0",
      "alpha" : 1,
      "operation" : 0,
      "weights" : {

      },
      "fused_relu" : 0,
      "debug_info" : "generator\/G_MODEL\/C\/r2\/add:0",
      "top" : "generator\/G_MODEL\/C\/r2\/add:0",
      "type" : "elementwise",
      "name" : "generator\/G_MODEL\/C\/r2\/add:0",
      "beta" : 0
    },
    {
      "pad_r" : 0,
      "fused_relu" : 0,
      "fused_tanh" : 0,
      "debug_info" : "generator\/G_MODEL\/C\/r3\/Conv\/Conv2D:0",
      "pad_fill_mode" : 0,
      "pad_b" : 0,
      "pad_l" : 0,
      "top" : "generator\/G_MODEL\/C\/r3\/Conv\/Conv2D:0",
      "blob_weights" : 77,
      "K" : 256,
      "name" : "generator\/G_MODEL\/C\/r3\/Conv\/Conv2D:0",
      "has_batch_norm" : 0,
      "type" : "convolution",
      "n_groups" : 1,
      "pad_t" : 0,
      "has_biases" : 0,
      "C" : 512,
      "bottom" : "generator\/G_MODEL\/C\/r2\/add:0",
      "weights" : {

      },
      "Nx" : 1,
      "pad_mode" : 0,
      "pad_value" : 0,
      "Ny" : 1,
      "n_parallel" : 1
    },
    {
      "bottom" : "generator\/G_MODEL\/C\/r3\/Conv\/Conv2D:0",
      "weights" : {

      },
      "mode" : 1,
      "debug_info" : "generator\/G_MODEL\/C\/r3\/LayerNorm\/moments\/mean:0",
      "use_version" : 1,
      "top" : "generator\/G_MODEL\/C\/r3\/LayerNorm\/moments\/mean:0",
      "type" : "reduce",
      "name" : "generator\/G_MODEL\/C\/r3\/LayerNorm\/moments\/mean:0"
    },
    {
      "alpha" : -1,
      "bottom" : "generator\/G_MODEL\/C\/r3\/LayerNorm\/moments\/mean:0",
      "weights" : {

      },
      "mode" : 6,
      "debug_info" : "negated_generator\/G_MODEL\/C\/r3\/LayerNorm\/moments\/StopGradient:0_generator\/G_MODEL\/C\/r3\/LayerNorm\/moments\/SquaredDifference:0_difference",
      "top" : "negated_generator\/G_MODEL\/C\/r3\/LayerNorm\/moments\/StopGradient:0_generator\/G_MODEL\/C\/r3\/LayerNorm\/moments\/SquaredDifference:0_difference",
      "type" : "activation",
      "name" : "negated_generator\/G_MODEL\/C\/r3\/LayerNorm\/moments\/StopGradient:0_generator\/G_MODEL\/C\/r3\/LayerNorm\/moments\/SquaredDifference:0_difference",
      "beta" : 0
    },
    {
      "bottom" : "generator\/G_MODEL\/C\/r3\/Conv\/Conv2D:0,negated_generator\/G_MODEL\/C\/r3\/LayerNorm\/moments\/StopGradient:0_generator\/G_MODEL\/C\/r3\/LayerNorm\/moments\/SquaredDifference:0_difference",
      "alpha" : 1,
      "operation" : 0,
      "weights" : {

      },
      "fused_relu" : 0,
      "debug_info" : "generator\/G_MODEL\/C\/r3\/LayerNorm\/moments\/SquaredDifference:0_difference",
      "top" : "generator\/G_MODEL\/C\/r3\/LayerNorm\/moments\/SquaredDifference:0_difference",
      "type" : "elementwise",
      "name" : "generator\/G_MODEL\/C\/r3\/LayerNorm\/moments\/SquaredDifference:0_difference",
      "beta" : 0
    },
    {
      "bottom" : "generator\/G_MODEL\/C\/r3\/LayerNorm\/moments\/SquaredDifference:0_difference,generator\/G_MODEL\/C\/r3\/LayerNorm\/moments\/SquaredDifference:0_difference",
      "alpha" : 1,
      "operation" : 1,
      "weights" : {

      },
      "fused_relu" : 0,
      "debug_info" : "generator\/G_MODEL\/C\/r3\/LayerNorm\/moments\/SquaredDifference:0",
      "top" : "generator\/G_MODEL\/C\/r3\/LayerNorm\/moments\/SquaredDifference:0",
      "type" : "elementwise",
      "name" : "generator\/G_MODEL\/C\/r3\/LayerNorm\/moments\/SquaredDifference:0",
      "beta" : 0
    },
    {
      "bottom" : "generator\/G_MODEL\/C\/r3\/LayerNorm\/moments\/SquaredDifference:0",
      "weights" : {

      },
      "mode" : 1,
      "debug_info" : "generator\/G_MODEL\/C\/r3\/LayerNorm\/moments\/variance:0",
      "use_version" : 1,
      "top" : "generator\/G_MODEL\/C\/r3\/LayerNorm\/moments\/variance:0",
      "type" : "reduce",
      "name" : "generator\/G_MODEL\/C\/r3\/LayerNorm\/moments\/variance:0"
    },
    {
      "bottom" : "generator\/G_MODEL\/C\/r3\/LayerNorm\/moments\/variance:0",
      "alpha" : 9.999999960041972e-13,
      "operation" : 0,
      "weights" : {

      },
      "fused_relu" : 0,
      "debug_info" : "generator\/G_MODEL\/C\/r3\/LayerNorm\/batchnorm\/add:0",
      "top" : "generator\/G_MODEL\/C\/r3\/LayerNorm\/batchnorm\/add:0",
      "type" : "elementwise",
      "name" : "generator\/G_MODEL\/C\/r3\/LayerNorm\/batchnorm\/add:0",
      "beta" : 0
    },
    {
      "bottom" : "generator\/G_MODEL\/C\/r3\/LayerNorm\/batchnorm\/add:0",
      "alpha" : 1,
      "operation" : 12,
      "weights" : {

      },
      "fused_relu" : 0,
      "debug_info" : "generator\/G_MODEL\/C\/r3\/LayerNorm\/batchnorm\/Rsqrt:0",
      "top" : "generator\/G_MODEL\/C\/r3\/LayerNorm\/batchnorm\/Rsqrt:0",
      "type" : "elementwise",
      "name" : "generator\/G_MODEL\/C\/r3\/LayerNorm\/batchnorm\/Rsqrt:0",
      "beta" : 0
    },
    {
      "bottom" : "",
      "k" : 512,
      "n" : 1,
      "weights" : {

      },
      "h" : 1,
      "debug_info" : "generator\/G_MODEL\/C\/r3\/LayerNorm\/gamma\/read:0",
      "constant_blob" : 79,
      "top" : "generator\/G_MODEL\/C\/r3\/LayerNorm\/gamma\/read:0",
      "w" : 1,
      "type" : "load_constant",
      "name" : "generator\/G_MODEL\/C\/r3\/LayerNorm\/gamma\/read:0"
    },
    {
      "bottom" : "generator\/G_MODEL\/C\/r3\/LayerNorm\/batchnorm\/Rsqrt:0,generator\/G_MODEL\/C\/r3\/LayerNorm\/gamma\/read:0",
      "alpha" : 1,
      "operation" : 1,
      "weights" : {

      },
      "fused_relu" : 0,
      "debug_info" : "generator\/G_MODEL\/C\/r3\/LayerNorm\/batchnorm\/mul:0",
      "top" : "generator\/G_MODEL\/C\/r3\/LayerNorm\/batchnorm\/mul:0",
      "type" : "elementwise",
      "name" : "generator\/G_MODEL\/C\/r3\/LayerNorm\/batchnorm\/mul:0",
      "beta" : 0
    },
    {
      "bottom" : "generator\/G_MODEL\/C\/r3\/Conv\/Conv2D:0,generator\/G_MODEL\/C\/r3\/LayerNorm\/batchnorm\/mul:0",
      "alpha" : 1,
      "operation" : 1,
      "weights" : {

      },
      "fused_relu" : 0,
      "debug_info" : "generator\/G_MODEL\/C\/r3\/LayerNorm\/batchnorm\/mul_1:0",
      "top" : "generator\/G_MODEL\/C\/r3\/LayerNorm\/batchnorm\/mul_1:0",
      "type" : "elementwise",
      "name" : "generator\/G_MODEL\/C\/r3\/LayerNorm\/batchnorm\/mul_1:0",
      "beta" : 0
    },
    {
      "bottom" : "generator\/G_MODEL\/C\/r3\/LayerNorm\/moments\/mean:0,generator\/G_MODEL\/C\/r3\/LayerNorm\/batchnorm\/mul:0",
      "alpha" : 1,
      "operation" : 1,
      "weights" : {

      },
      "fused_relu" : 0,
      "debug_info" : "generator\/G_MODEL\/C\/r3\/LayerNorm\/batchnorm\/mul_2:0",
      "top" : "generator\/G_MODEL\/C\/r3\/LayerNorm\/batchnorm\/mul_2:0",
      "type" : "elementwise",
      "name" : "generator\/G_MODEL\/C\/r3\/LayerNorm\/batchnorm\/mul_2:0",
      "beta" : 0
    },
    {
      "bottom" : "",
      "k" : 512,
      "n" : 1,
      "weights" : {

      },
      "h" : 1,
      "debug_info" : "generator\/G_MODEL\/C\/r3\/LayerNorm\/beta\/read:0",
      "constant_blob" : 81,
      "top" : "generator\/G_MODEL\/C\/r3\/LayerNorm\/beta\/read:0",
      "w" : 1,
      "type" : "load_constant",
      "name" : "generator\/G_MODEL\/C\/r3\/LayerNorm\/beta\/read:0"
    },
    {
      "alpha" : -1,
      "bottom" : "generator\/G_MODEL\/C\/r3\/LayerNorm\/batchnorm\/mul_2:0",
      "weights" : {

      },
      "mode" : 6,
      "debug_info" : "negated_generator\/G_MODEL\/C\/r3\/LayerNorm\/batchnorm\/mul_2:0_generator\/G_MODEL\/C\/r3\/LayerNorm\/batchnorm\/sub:0",
      "top" : "negated_generator\/G_MODEL\/C\/r3\/LayerNorm\/batchnorm\/mul_2:0_generator\/G_MODEL\/C\/r3\/LayerNorm\/batchnorm\/sub:0",
      "type" : "activation",
      "name" : "negated_generator\/G_MODEL\/C\/r3\/LayerNorm\/batchnorm\/mul_2:0_generator\/G_MODEL\/C\/r3\/LayerNorm\/batchnorm\/sub:0",
      "beta" : 0
    },
    {
      "bottom" : "generator\/G_MODEL\/C\/r3\/LayerNorm\/beta\/read:0,negated_generator\/G_MODEL\/C\/r3\/LayerNorm\/batchnorm\/mul_2:0_generator\/G_MODEL\/C\/r3\/LayerNorm\/batchnorm\/sub:0",
      "alpha" : 1,
      "operation" : 0,
      "weights" : {

      },
      "fused_relu" : 0,
      "debug_info" : "generator\/G_MODEL\/C\/r3\/LayerNorm\/batchnorm\/sub:0",
      "top" : "generator\/G_MODEL\/C\/r3\/LayerNorm\/batchnorm\/sub:0",
      "type" : "elementwise",
      "name" : "generator\/G_MODEL\/C\/r3\/LayerNorm\/batchnorm\/sub:0",
      "beta" : 0
    },
    {
      "bottom" : "generator\/G_MODEL\/C\/r3\/LayerNorm\/batchnorm\/mul_1:0,generator\/G_MODEL\/C\/r3\/LayerNorm\/batchnorm\/sub:0",
      "alpha" : 1,
      "operation" : 0,
      "weights" : {

      },
      "fused_relu" : 0,
      "debug_info" : "generator\/G_MODEL\/C\/r3\/LayerNorm\/batchnorm\/add_1:0",
      "top" : "generator\/G_MODEL\/C\/r3\/LayerNorm\/batchnorm\/add_1:0",
      "type" : "elementwise",
      "name" : "generator\/G_MODEL\/C\/r3\/LayerNorm\/batchnorm\/add_1:0",
      "beta" : 0
    },
    {
      "bottom" : "generator\/G_MODEL\/C\/r3\/LayerNorm\/batchnorm\/add_1:0",
      "alpha" : 0.20000000298023224,
      "operation" : 1,
      "weights" : {

      },
      "fused_relu" : 0,
      "debug_info" : "generator\/G_MODEL\/C\/r3\/LeakyRelu\/mul:0",
      "top" : "generator\/G_MODEL\/C\/r3\/LeakyRelu\/mul:0",
      "type" : "elementwise",
      "name" : "generator\/G_MODEL\/C\/r3\/LeakyRelu\/mul:0",
      "beta" : 0
    },
    {
      "bottom" : "generator\/G_MODEL\/C\/r3\/LeakyRelu\/mul:0,generator\/G_MODEL\/C\/r3\/LayerNorm\/batchnorm\/add_1:0",
      "alpha" : 1,
      "operation" : 23,
      "weights" : {

      },
      "fused_relu" : 0,
      "debug_info" : "generator\/G_MODEL\/C\/r3\/LeakyRelu\/Maximum:0",
      "top" : "generator\/G_MODEL\/C\/r3\/LeakyRelu\/Maximum:0",
      "type" : "elementwise",
      "name" : "generator\/G_MODEL\/C\/r3\/LeakyRelu\/Maximum:0",
      "beta" : 0
    },
    {
      "name" : "generator\/G_MODEL\/C\/r3\/MirrorPad:0",
      "weights" : {

      },
      "pad_pad_mode" : 0,
      "pad_t" : 1,
      "pad_r" : 1,
      "pad_b" : 1,
      "type" : "general_padding",
      "pad_fill_mode" : 2,
      "bottom" : "generator\/G_MODEL\/C\/r3\/LeakyRelu\/Maximum:0",
      "pad_l" : 1,
      "debug_info" : "generator\/G_MODEL\/C\/r3\/MirrorPad:0",
      "pad_value" : 0,
      "top" : "generator\/G_MODEL\/C\/r3\/MirrorPad:0"
    },
    {
      "pad_r" : 0,
      "fused_relu" : 0,
      "fused_tanh" : 0,
      "debug_info" : "generator\/G_MODEL\/C\/r3\/r3\/r3:0",
      "pad_fill_mode" : 0,
      "pad_b" : 0,
      "pad_l" : 0,
      "top" : "generator\/G_MODEL\/C\/r3\/r3\/BiasAdd:0",
      "blob_weights" : 85,
      "K" : 512,
      "blob_biases" : 83,
      "name" : "generator\/G_MODEL\/C\/r3\/r3\/r3:0",
      "has_batch_norm" : 0,
      "type" : "convolution",
      "n_groups" : 512,
      "pad_t" : 0,
      "has_biases" : 1,
      "C" : 512,
      "bottom" : "generator\/G_MODEL\/C\/r3\/MirrorPad:0",
      "weights" : {

      },
      "Nx" : 3,
      "pad_mode" : 0,
      "pad_value" : 0,
      "Ny" : 3,
      "n_parallel" : 1
    },
    {
      "bottom" : "generator\/G_MODEL\/C\/r3\/r3\/BiasAdd:0",
      "weights" : {

      },
      "mode" : 1,
      "debug_info" : "generator\/G_MODEL\/C\/r3\/1\/moments\/mean:0",
      "use_version" : 1,
      "top" : "generator\/G_MODEL\/C\/r3\/1\/moments\/mean:0",
      "type" : "reduce",
      "name" : "generator\/G_MODEL\/C\/r3\/1\/moments\/mean:0"
    },
    {
      "alpha" : -1,
      "bottom" : "generator\/G_MODEL\/C\/r3\/1\/moments\/mean:0",
      "weights" : {

      },
      "mode" : 6,
      "debug_info" : "negated_generator\/G_MODEL\/C\/r3\/1\/moments\/StopGradient:0_generator\/G_MODEL\/C\/r3\/1\/moments\/SquaredDifference:0_difference",
      "top" : "negated_generator\/G_MODEL\/C\/r3\/1\/moments\/StopGradient:0_generator\/G_MODEL\/C\/r3\/1\/moments\/SquaredDifference:0_difference",
      "type" : "activation",
      "name" : "negated_generator\/G_MODEL\/C\/r3\/1\/moments\/StopGradient:0_generator\/G_MODEL\/C\/r3\/1\/moments\/SquaredDifference:0_difference",
      "beta" : 0
    },
    {
      "bottom" : "generator\/G_MODEL\/C\/r3\/r3\/BiasAdd:0,negated_generator\/G_MODEL\/C\/r3\/1\/moments\/StopGradient:0_generator\/G_MODEL\/C\/r3\/1\/moments\/SquaredDifference:0_difference",
      "alpha" : 1,
      "operation" : 0,
      "weights" : {

      },
      "fused_relu" : 0,
      "debug_info" : "generator\/G_MODEL\/C\/r3\/1\/moments\/SquaredDifference:0_difference",
      "top" : "generator\/G_MODEL\/C\/r3\/1\/moments\/SquaredDifference:0_difference",
      "type" : "elementwise",
      "name" : "generator\/G_MODEL\/C\/r3\/1\/moments\/SquaredDifference:0_difference",
      "beta" : 0
    },
    {
      "bottom" : "generator\/G_MODEL\/C\/r3\/1\/moments\/SquaredDifference:0_difference,generator\/G_MODEL\/C\/r3\/1\/moments\/SquaredDifference:0_difference",
      "alpha" : 1,
      "operation" : 1,
      "weights" : {

      },
      "fused_relu" : 0,
      "debug_info" : "generator\/G_MODEL\/C\/r3\/1\/moments\/SquaredDifference:0",
      "top" : "generator\/G_MODEL\/C\/r3\/1\/moments\/SquaredDifference:0",
      "type" : "elementwise",
      "name" : "generator\/G_MODEL\/C\/r3\/1\/moments\/SquaredDifference:0",
      "beta" : 0
    },
    {
      "bottom" : "generator\/G_MODEL\/C\/r3\/1\/moments\/SquaredDifference:0",
      "weights" : {

      },
      "mode" : 1,
      "debug_info" : "generator\/G_MODEL\/C\/r3\/1\/moments\/variance:0",
      "use_version" : 1,
      "top" : "generator\/G_MODEL\/C\/r3\/1\/moments\/variance:0",
      "type" : "reduce",
      "name" : "generator\/G_MODEL\/C\/r3\/1\/moments\/variance:0"
    },
    {
      "bottom" : "generator\/G_MODEL\/C\/r3\/1\/moments\/variance:0",
      "alpha" : 9.999999960041972e-13,
      "operation" : 0,
      "weights" : {

      },
      "fused_relu" : 0,
      "debug_info" : "generator\/G_MODEL\/C\/r3\/1\/batchnorm\/add:0",
      "top" : "generator\/G_MODEL\/C\/r3\/1\/batchnorm\/add:0",
      "type" : "elementwise",
      "name" : "generator\/G_MODEL\/C\/r3\/1\/batchnorm\/add:0",
      "beta" : 0
    },
    {
      "bottom" : "generator\/G_MODEL\/C\/r3\/1\/batchnorm\/add:0",
      "alpha" : 1,
      "operation" : 12,
      "weights" : {

      },
      "fused_relu" : 0,
      "debug_info" : "generator\/G_MODEL\/C\/r3\/1\/batchnorm\/Rsqrt:0",
      "top" : "generator\/G_MODEL\/C\/r3\/1\/batchnorm\/Rsqrt:0",
      "type" : "elementwise",
      "name" : "generator\/G_MODEL\/C\/r3\/1\/batchnorm\/Rsqrt:0",
      "beta" : 0
    },
    {
      "bottom" : "",
      "k" : 512,
      "n" : 1,
      "weights" : {

      },
      "h" : 1,
      "debug_info" : "generator\/G_MODEL\/C\/r3\/1\/gamma\/read:0",
      "constant_blob" : 87,
      "top" : "generator\/G_MODEL\/C\/r3\/1\/gamma\/read:0",
      "w" : 1,
      "type" : "load_constant",
      "name" : "generator\/G_MODEL\/C\/r3\/1\/gamma\/read:0"
    },
    {
      "bottom" : "generator\/G_MODEL\/C\/r3\/1\/batchnorm\/Rsqrt:0,generator\/G_MODEL\/C\/r3\/1\/gamma\/read:0",
      "alpha" : 1,
      "operation" : 1,
      "weights" : {

      },
      "fused_relu" : 0,
      "debug_info" : "generator\/G_MODEL\/C\/r3\/1\/batchnorm\/mul:0",
      "top" : "generator\/G_MODEL\/C\/r3\/1\/batchnorm\/mul:0",
      "type" : "elementwise",
      "name" : "generator\/G_MODEL\/C\/r3\/1\/batchnorm\/mul:0",
      "beta" : 0
    },
    {
      "bottom" : "generator\/G_MODEL\/C\/r3\/r3\/BiasAdd:0,generator\/G_MODEL\/C\/r3\/1\/batchnorm\/mul:0",
      "alpha" : 1,
      "operation" : 1,
      "weights" : {

      },
      "fused_relu" : 0,
      "debug_info" : "generator\/G_MODEL\/C\/r3\/1\/batchnorm\/mul_1:0",
      "top" : "generator\/G_MODEL\/C\/r3\/1\/batchnorm\/mul_1:0",
      "type" : "elementwise",
      "name" : "generator\/G_MODEL\/C\/r3\/1\/batchnorm\/mul_1:0",
      "beta" : 0
    },
    {
      "bottom" : "generator\/G_MODEL\/C\/r3\/1\/moments\/mean:0,generator\/G_MODEL\/C\/r3\/1\/batchnorm\/mul:0",
      "alpha" : 1,
      "operation" : 1,
      "weights" : {

      },
      "fused_relu" : 0,
      "debug_info" : "generator\/G_MODEL\/C\/r3\/1\/batchnorm\/mul_2:0",
      "top" : "generator\/G_MODEL\/C\/r3\/1\/batchnorm\/mul_2:0",
      "type" : "elementwise",
      "name" : "generator\/G_MODEL\/C\/r3\/1\/batchnorm\/mul_2:0",
      "beta" : 0
    },
    {
      "bottom" : "",
      "k" : 512,
      "n" : 1,
      "weights" : {

      },
      "h" : 1,
      "debug_info" : "generator\/G_MODEL\/C\/r3\/1\/beta\/read:0",
      "constant_blob" : 89,
      "top" : "generator\/G_MODEL\/C\/r3\/1\/beta\/read:0",
      "w" : 1,
      "type" : "load_constant",
      "name" : "generator\/G_MODEL\/C\/r3\/1\/beta\/read:0"
    },
    {
      "alpha" : -1,
      "bottom" : "generator\/G_MODEL\/C\/r3\/1\/batchnorm\/mul_2:0",
      "weights" : {

      },
      "mode" : 6,
      "debug_info" : "negated_generator\/G_MODEL\/C\/r3\/1\/batchnorm\/mul_2:0_generator\/G_MODEL\/C\/r3\/1\/batchnorm\/sub:0",
      "top" : "negated_generator\/G_MODEL\/C\/r3\/1\/batchnorm\/mul_2:0_generator\/G_MODEL\/C\/r3\/1\/batchnorm\/sub:0",
      "type" : "activation",
      "name" : "negated_generator\/G_MODEL\/C\/r3\/1\/batchnorm\/mul_2:0_generator\/G_MODEL\/C\/r3\/1\/batchnorm\/sub:0",
      "beta" : 0
    },
    {
      "bottom" : "generator\/G_MODEL\/C\/r3\/1\/beta\/read:0,negated_generator\/G_MODEL\/C\/r3\/1\/batchnorm\/mul_2:0_generator\/G_MODEL\/C\/r3\/1\/batchnorm\/sub:0",
      "alpha" : 1,
      "operation" : 0,
      "weights" : {

      },
      "fused_relu" : 0,
      "debug_info" : "generator\/G_MODEL\/C\/r3\/1\/batchnorm\/sub:0",
      "top" : "generator\/G_MODEL\/C\/r3\/1\/batchnorm\/sub:0",
      "type" : "elementwise",
      "name" : "generator\/G_MODEL\/C\/r3\/1\/batchnorm\/sub:0",
      "beta" : 0
    },
    {
      "bottom" : "generator\/G_MODEL\/C\/r3\/1\/batchnorm\/mul_1:0,generator\/G_MODEL\/C\/r3\/1\/batchnorm\/sub:0",
      "alpha" : 1,
      "operation" : 0,
      "weights" : {

      },
      "fused_relu" : 0,
      "debug_info" : "generator\/G_MODEL\/C\/r3\/1\/batchnorm\/add_1:0",
      "top" : "generator\/G_MODEL\/C\/r3\/1\/batchnorm\/add_1:0",
      "type" : "elementwise",
      "name" : "generator\/G_MODEL\/C\/r3\/1\/batchnorm\/add_1:0",
      "beta" : 0
    },
    {
      "bottom" : "generator\/G_MODEL\/C\/r3\/1\/batchnorm\/add_1:0",
      "alpha" : 0.20000000298023224,
      "operation" : 1,
      "weights" : {

      },
      "fused_relu" : 0,
      "debug_info" : "generator\/G_MODEL\/C\/r3\/LeakyRelu_1\/mul:0",
      "top" : "generator\/G_MODEL\/C\/r3\/LeakyRelu_1\/mul:0",
      "type" : "elementwise",
      "name" : "generator\/G_MODEL\/C\/r3\/LeakyRelu_1\/mul:0",
      "beta" : 0
    },
    {
      "bottom" : "generator\/G_MODEL\/C\/r3\/LeakyRelu_1\/mul:0,generator\/G_MODEL\/C\/r3\/1\/batchnorm\/add_1:0",
      "alpha" : 1,
      "operation" : 23,
      "weights" : {

      },
      "fused_relu" : 0,
      "debug_info" : "generator\/G_MODEL\/C\/r3\/LeakyRelu_1\/Maximum:0",
      "top" : "generator\/G_MODEL\/C\/r3\/LeakyRelu_1\/Maximum:0",
      "type" : "elementwise",
      "name" : "generator\/G_MODEL\/C\/r3\/LeakyRelu_1\/Maximum:0",
      "beta" : 0
    },
    {
      "pad_r" : 0,
      "fused_relu" : 0,
      "fused_tanh" : 0,
      "debug_info" : "generator\/G_MODEL\/C\/r3\/Conv_1\/Conv2D:0",
      "pad_fill_mode" : 0,
      "pad_b" : 0,
      "pad_l" : 0,
      "top" : "generator\/G_MODEL\/C\/r3\/Conv_1\/Conv2D:0",
      "blob_weights" : 91,
      "K" : 512,
      "name" : "generator\/G_MODEL\/C\/r3\/Conv_1\/Conv2D:0",
      "has_batch_norm" : 0,
      "type" : "convolution",
      "n_groups" : 1,
      "pad_t" : 0,
      "has_biases" : 0,
      "C" : 256,
      "bottom" : "generator\/G_MODEL\/C\/r3\/LeakyRelu_1\/Maximum:0",
      "weights" : {

      },
      "Nx" : 1,
      "pad_mode" : 0,
      "pad_value" : 0,
      "Ny" : 1,
      "n_parallel" : 1
    },
    {
      "bottom" : "generator\/G_MODEL\/C\/r3\/Conv_1\/Conv2D:0",
      "weights" : {

      },
      "mode" : 1,
      "debug_info" : "generator\/G_MODEL\/C\/r3\/2\/moments\/mean:0",
      "use_version" : 1,
      "top" : "generator\/G_MODEL\/C\/r3\/2\/moments\/mean:0",
      "type" : "reduce",
      "name" : "generator\/G_MODEL\/C\/r3\/2\/moments\/mean:0"
    },
    {
      "alpha" : -1,
      "bottom" : "generator\/G_MODEL\/C\/r3\/2\/moments\/mean:0",
      "weights" : {

      },
      "mode" : 6,
      "debug_info" : "negated_generator\/G_MODEL\/C\/r3\/2\/moments\/StopGradient:0_generator\/G_MODEL\/C\/r3\/2\/moments\/SquaredDifference:0_difference",
      "top" : "negated_generator\/G_MODEL\/C\/r3\/2\/moments\/StopGradient:0_generator\/G_MODEL\/C\/r3\/2\/moments\/SquaredDifference:0_difference",
      "type" : "activation",
      "name" : "negated_generator\/G_MODEL\/C\/r3\/2\/moments\/StopGradient:0_generator\/G_MODEL\/C\/r3\/2\/moments\/SquaredDifference:0_difference",
      "beta" : 0
    },
    {
      "bottom" : "generator\/G_MODEL\/C\/r3\/Conv_1\/Conv2D:0,negated_generator\/G_MODEL\/C\/r3\/2\/moments\/StopGradient:0_generator\/G_MODEL\/C\/r3\/2\/moments\/SquaredDifference:0_difference",
      "alpha" : 1,
      "operation" : 0,
      "weights" : {

      },
      "fused_relu" : 0,
      "debug_info" : "generator\/G_MODEL\/C\/r3\/2\/moments\/SquaredDifference:0_difference",
      "top" : "generator\/G_MODEL\/C\/r3\/2\/moments\/SquaredDifference:0_difference",
      "type" : "elementwise",
      "name" : "generator\/G_MODEL\/C\/r3\/2\/moments\/SquaredDifference:0_difference",
      "beta" : 0
    },
    {
      "bottom" : "generator\/G_MODEL\/C\/r3\/2\/moments\/SquaredDifference:0_difference,generator\/G_MODEL\/C\/r3\/2\/moments\/SquaredDifference:0_difference",
      "alpha" : 1,
      "operation" : 1,
      "weights" : {

      },
      "fused_relu" : 0,
      "debug_info" : "generator\/G_MODEL\/C\/r3\/2\/moments\/SquaredDifference:0",
      "top" : "generator\/G_MODEL\/C\/r3\/2\/moments\/SquaredDifference:0",
      "type" : "elementwise",
      "name" : "generator\/G_MODEL\/C\/r3\/2\/moments\/SquaredDifference:0",
      "beta" : 0
    },
    {
      "bottom" : "generator\/G_MODEL\/C\/r3\/2\/moments\/SquaredDifference:0",
      "weights" : {

      },
      "mode" : 1,
      "debug_info" : "generator\/G_MODEL\/C\/r3\/2\/moments\/variance:0",
      "use_version" : 1,
      "top" : "generator\/G_MODEL\/C\/r3\/2\/moments\/variance:0",
      "type" : "reduce",
      "name" : "generator\/G_MODEL\/C\/r3\/2\/moments\/variance:0"
    },
    {
      "bottom" : "generator\/G_MODEL\/C\/r3\/2\/moments\/variance:0",
      "alpha" : 9.999999960041972e-13,
      "operation" : 0,
      "weights" : {

      },
      "fused_relu" : 0,
      "debug_info" : "generator\/G_MODEL\/C\/r3\/2\/batchnorm\/add:0",
      "top" : "generator\/G_MODEL\/C\/r3\/2\/batchnorm\/add:0",
      "type" : "elementwise",
      "name" : "generator\/G_MODEL\/C\/r3\/2\/batchnorm\/add:0",
      "beta" : 0
    },
    {
      "bottom" : "generator\/G_MODEL\/C\/r3\/2\/batchnorm\/add:0",
      "alpha" : 1,
      "operation" : 12,
      "weights" : {

      },
      "fused_relu" : 0,
      "debug_info" : "generator\/G_MODEL\/C\/r3\/2\/batchnorm\/Rsqrt:0",
      "top" : "generator\/G_MODEL\/C\/r3\/2\/batchnorm\/Rsqrt:0",
      "type" : "elementwise",
      "name" : "generator\/G_MODEL\/C\/r3\/2\/batchnorm\/Rsqrt:0",
      "beta" : 0
    },
    {
      "bottom" : "",
      "k" : 256,
      "n" : 1,
      "weights" : {

      },
      "h" : 1,
      "debug_info" : "generator\/G_MODEL\/C\/r3\/2\/gamma\/read:0",
      "constant_blob" : 93,
      "top" : "generator\/G_MODEL\/C\/r3\/2\/gamma\/read:0",
      "w" : 1,
      "type" : "load_constant",
      "name" : "generator\/G_MODEL\/C\/r3\/2\/gamma\/read:0"
    },
    {
      "bottom" : "generator\/G_MODEL\/C\/r3\/2\/batchnorm\/Rsqrt:0,generator\/G_MODEL\/C\/r3\/2\/gamma\/read:0",
      "alpha" : 1,
      "operation" : 1,
      "weights" : {

      },
      "fused_relu" : 0,
      "debug_info" : "generator\/G_MODEL\/C\/r3\/2\/batchnorm\/mul:0",
      "top" : "generator\/G_MODEL\/C\/r3\/2\/batchnorm\/mul:0",
      "type" : "elementwise",
      "name" : "generator\/G_MODEL\/C\/r3\/2\/batchnorm\/mul:0",
      "beta" : 0
    },
    {
      "bottom" : "generator\/G_MODEL\/C\/r3\/Conv_1\/Conv2D:0,generator\/G_MODEL\/C\/r3\/2\/batchnorm\/mul:0",
      "alpha" : 1,
      "operation" : 1,
      "weights" : {

      },
      "fused_relu" : 0,
      "debug_info" : "generator\/G_MODEL\/C\/r3\/2\/batchnorm\/mul_1:0",
      "top" : "generator\/G_MODEL\/C\/r3\/2\/batchnorm\/mul_1:0",
      "type" : "elementwise",
      "name" : "generator\/G_MODEL\/C\/r3\/2\/batchnorm\/mul_1:0",
      "beta" : 0
    },
    {
      "bottom" : "generator\/G_MODEL\/C\/r3\/2\/moments\/mean:0,generator\/G_MODEL\/C\/r3\/2\/batchnorm\/mul:0",
      "alpha" : 1,
      "operation" : 1,
      "weights" : {

      },
      "fused_relu" : 0,
      "debug_info" : "generator\/G_MODEL\/C\/r3\/2\/batchnorm\/mul_2:0",
      "top" : "generator\/G_MODEL\/C\/r3\/2\/batchnorm\/mul_2:0",
      "type" : "elementwise",
      "name" : "generator\/G_MODEL\/C\/r3\/2\/batchnorm\/mul_2:0",
      "beta" : 0
    },
    {
      "bottom" : "",
      "k" : 256,
      "n" : 1,
      "weights" : {

      },
      "h" : 1,
      "debug_info" : "generator\/G_MODEL\/C\/r3\/2\/beta\/read:0",
      "constant_blob" : 95,
      "top" : "generator\/G_MODEL\/C\/r3\/2\/beta\/read:0",
      "w" : 1,
      "type" : "load_constant",
      "name" : "generator\/G_MODEL\/C\/r3\/2\/beta\/read:0"
    },
    {
      "alpha" : -1,
      "bottom" : "generator\/G_MODEL\/C\/r3\/2\/batchnorm\/mul_2:0",
      "weights" : {

      },
      "mode" : 6,
      "debug_info" : "negated_generator\/G_MODEL\/C\/r3\/2\/batchnorm\/mul_2:0_generator\/G_MODEL\/C\/r3\/2\/batchnorm\/sub:0",
      "top" : "negated_generator\/G_MODEL\/C\/r3\/2\/batchnorm\/mul_2:0_generator\/G_MODEL\/C\/r3\/2\/batchnorm\/sub:0",
      "type" : "activation",
      "name" : "negated_generator\/G_MODEL\/C\/r3\/2\/batchnorm\/mul_2:0_generator\/G_MODEL\/C\/r3\/2\/batchnorm\/sub:0",
      "beta" : 0
    },
    {
      "bottom" : "generator\/G_MODEL\/C\/r3\/2\/beta\/read:0,negated_generator\/G_MODEL\/C\/r3\/2\/batchnorm\/mul_2:0_generator\/G_MODEL\/C\/r3\/2\/batchnorm\/sub:0",
      "alpha" : 1,
      "operation" : 0,
      "weights" : {

      },
      "fused_relu" : 0,
      "debug_info" : "generator\/G_MODEL\/C\/r3\/2\/batchnorm\/sub:0",
      "top" : "generator\/G_MODEL\/C\/r3\/2\/batchnorm\/sub:0",
      "type" : "elementwise",
      "name" : "generator\/G_MODEL\/C\/r3\/2\/batchnorm\/sub:0",
      "beta" : 0
    },
    {
      "bottom" : "generator\/G_MODEL\/C\/r3\/2\/batchnorm\/mul_1:0,generator\/G_MODEL\/C\/r3\/2\/batchnorm\/sub:0",
      "alpha" : 1,
      "operation" : 0,
      "weights" : {

      },
      "fused_relu" : 0,
      "debug_info" : "generator\/G_MODEL\/C\/r3\/2\/batchnorm\/add_1:0",
      "top" : "generator\/G_MODEL\/C\/r3\/2\/batchnorm\/add_1:0",
      "type" : "elementwise",
      "name" : "generator\/G_MODEL\/C\/r3\/2\/batchnorm\/add_1:0",
      "beta" : 0
    },
    {
      "bottom" : "generator\/G_MODEL\/C\/r2\/add:0,generator\/G_MODEL\/C\/r3\/2\/batchnorm\/add_1:0",
      "alpha" : 1,
      "operation" : 0,
      "weights" : {

      },
      "fused_relu" : 0,
      "debug_info" : "generator\/G_MODEL\/C\/r3\/add:0",
      "top" : "generator\/G_MODEL\/C\/r3\/add:0",
      "type" : "elementwise",
      "name" : "generator\/G_MODEL\/C\/r3\/add:0",
      "beta" : 0
    },
    {
      "pad_r" : 0,
      "fused_relu" : 0,
      "fused_tanh" : 0,
      "debug_info" : "generator\/G_MODEL\/C\/r4\/Conv\/Conv2D:0",
      "pad_fill_mode" : 0,
      "pad_b" : 0,
      "pad_l" : 0,
      "top" : "generator\/G_MODEL\/C\/r4\/Conv\/Conv2D:0",
      "blob_weights" : 97,
      "K" : 256,
      "name" : "generator\/G_MODEL\/C\/r4\/Conv\/Conv2D:0",
      "has_batch_norm" : 0,
      "type" : "convolution",
      "n_groups" : 1,
      "pad_t" : 0,
      "has_biases" : 0,
      "C" : 512,
      "bottom" : "generator\/G_MODEL\/C\/r3\/add:0",
      "weights" : {

      },
      "Nx" : 1,
      "pad_mode" : 0,
      "pad_value" : 0,
      "Ny" : 1,
      "n_parallel" : 1
    },
    {
      "bottom" : "generator\/G_MODEL\/C\/r4\/Conv\/Conv2D:0",
      "weights" : {

      },
      "mode" : 1,
      "debug_info" : "generator\/G_MODEL\/C\/r4\/LayerNorm\/moments\/mean:0",
      "use_version" : 1,
      "top" : "generator\/G_MODEL\/C\/r4\/LayerNorm\/moments\/mean:0",
      "type" : "reduce",
      "name" : "generator\/G_MODEL\/C\/r4\/LayerNorm\/moments\/mean:0"
    },
    {
      "alpha" : -1,
      "bottom" : "generator\/G_MODEL\/C\/r4\/LayerNorm\/moments\/mean:0",
      "weights" : {

      },
      "mode" : 6,
      "debug_info" : "negated_generator\/G_MODEL\/C\/r4\/LayerNorm\/moments\/StopGradient:0_generator\/G_MODEL\/C\/r4\/LayerNorm\/moments\/SquaredDifference:0_difference",
      "top" : "negated_generator\/G_MODEL\/C\/r4\/LayerNorm\/moments\/StopGradient:0_generator\/G_MODEL\/C\/r4\/LayerNorm\/moments\/SquaredDifference:0_difference",
      "type" : "activation",
      "name" : "negated_generator\/G_MODEL\/C\/r4\/LayerNorm\/moments\/StopGradient:0_generator\/G_MODEL\/C\/r4\/LayerNorm\/moments\/SquaredDifference:0_difference",
      "beta" : 0
    },
    {
      "bottom" : "generator\/G_MODEL\/C\/r4\/Conv\/Conv2D:0,negated_generator\/G_MODEL\/C\/r4\/LayerNorm\/moments\/StopGradient:0_generator\/G_MODEL\/C\/r4\/LayerNorm\/moments\/SquaredDifference:0_difference",
      "alpha" : 1,
      "operation" : 0,
      "weights" : {

      },
      "fused_relu" : 0,
      "debug_info" : "generator\/G_MODEL\/C\/r4\/LayerNorm\/moments\/SquaredDifference:0_difference",
      "top" : "generator\/G_MODEL\/C\/r4\/LayerNorm\/moments\/SquaredDifference:0_difference",
      "type" : "elementwise",
      "name" : "generator\/G_MODEL\/C\/r4\/LayerNorm\/moments\/SquaredDifference:0_difference",
      "beta" : 0
    },
    {
      "bottom" : "generator\/G_MODEL\/C\/r4\/LayerNorm\/moments\/SquaredDifference:0_difference,generator\/G_MODEL\/C\/r4\/LayerNorm\/moments\/SquaredDifference:0_difference",
      "alpha" : 1,
      "operation" : 1,
      "weights" : {

      },
      "fused_relu" : 0,
      "debug_info" : "generator\/G_MODEL\/C\/r4\/LayerNorm\/moments\/SquaredDifference:0",
      "top" : "generator\/G_MODEL\/C\/r4\/LayerNorm\/moments\/SquaredDifference:0",
      "type" : "elementwise",
      "name" : "generator\/G_MODEL\/C\/r4\/LayerNorm\/moments\/SquaredDifference:0",
      "beta" : 0
    },
    {
      "bottom" : "generator\/G_MODEL\/C\/r4\/LayerNorm\/moments\/SquaredDifference:0",
      "weights" : {

      },
      "mode" : 1,
      "debug_info" : "generator\/G_MODEL\/C\/r4\/LayerNorm\/moments\/variance:0",
      "use_version" : 1,
      "top" : "generator\/G_MODEL\/C\/r4\/LayerNorm\/moments\/variance:0",
      "type" : "reduce",
      "name" : "generator\/G_MODEL\/C\/r4\/LayerNorm\/moments\/variance:0"
    },
    {
      "bottom" : "generator\/G_MODEL\/C\/r4\/LayerNorm\/moments\/variance:0",
      "alpha" : 9.999999960041972e-13,
      "operation" : 0,
      "weights" : {

      },
      "fused_relu" : 0,
      "debug_info" : "generator\/G_MODEL\/C\/r4\/LayerNorm\/batchnorm\/add:0",
      "top" : "generator\/G_MODEL\/C\/r4\/LayerNorm\/batchnorm\/add:0",
      "type" : "elementwise",
      "name" : "generator\/G_MODEL\/C\/r4\/LayerNorm\/batchnorm\/add:0",
      "beta" : 0
    },
    {
      "bottom" : "generator\/G_MODEL\/C\/r4\/LayerNorm\/batchnorm\/add:0",
      "alpha" : 1,
      "operation" : 12,
      "weights" : {

      },
      "fused_relu" : 0,
      "debug_info" : "generator\/G_MODEL\/C\/r4\/LayerNorm\/batchnorm\/Rsqrt:0",
      "top" : "generator\/G_MODEL\/C\/r4\/LayerNorm\/batchnorm\/Rsqrt:0",
      "type" : "elementwise",
      "name" : "generator\/G_MODEL\/C\/r4\/LayerNorm\/batchnorm\/Rsqrt:0",
      "beta" : 0
    },
    {
      "bottom" : "",
      "k" : 512,
      "n" : 1,
      "weights" : {

      },
      "h" : 1,
      "debug_info" : "generator\/G_MODEL\/C\/r4\/LayerNorm\/gamma\/read:0",
      "constant_blob" : 99,
      "top" : "generator\/G_MODEL\/C\/r4\/LayerNorm\/gamma\/read:0",
      "w" : 1,
      "type" : "load_constant",
      "name" : "generator\/G_MODEL\/C\/r4\/LayerNorm\/gamma\/read:0"
    },
    {
      "bottom" : "generator\/G_MODEL\/C\/r4\/LayerNorm\/batchnorm\/Rsqrt:0,generator\/G_MODEL\/C\/r4\/LayerNorm\/gamma\/read:0",
      "alpha" : 1,
      "operation" : 1,
      "weights" : {

      },
      "fused_relu" : 0,
      "debug_info" : "generator\/G_MODEL\/C\/r4\/LayerNorm\/batchnorm\/mul:0",
      "top" : "generator\/G_MODEL\/C\/r4\/LayerNorm\/batchnorm\/mul:0",
      "type" : "elementwise",
      "name" : "generator\/G_MODEL\/C\/r4\/LayerNorm\/batchnorm\/mul:0",
      "beta" : 0
    },
    {
      "bottom" : "generator\/G_MODEL\/C\/r4\/Conv\/Conv2D:0,generator\/G_MODEL\/C\/r4\/LayerNorm\/batchnorm\/mul:0",
      "alpha" : 1,
      "operation" : 1,
      "weights" : {

      },
      "fused_relu" : 0,
      "debug_info" : "generator\/G_MODEL\/C\/r4\/LayerNorm\/batchnorm\/mul_1:0",
      "top" : "generator\/G_MODEL\/C\/r4\/LayerNorm\/batchnorm\/mul_1:0",
      "type" : "elementwise",
      "name" : "generator\/G_MODEL\/C\/r4\/LayerNorm\/batchnorm\/mul_1:0",
      "beta" : 0
    },
    {
      "bottom" : "generator\/G_MODEL\/C\/r4\/LayerNorm\/moments\/mean:0,generator\/G_MODEL\/C\/r4\/LayerNorm\/batchnorm\/mul:0",
      "alpha" : 1,
      "operation" : 1,
      "weights" : {

      },
      "fused_relu" : 0,
      "debug_info" : "generator\/G_MODEL\/C\/r4\/LayerNorm\/batchnorm\/mul_2:0",
      "top" : "generator\/G_MODEL\/C\/r4\/LayerNorm\/batchnorm\/mul_2:0",
      "type" : "elementwise",
      "name" : "generator\/G_MODEL\/C\/r4\/LayerNorm\/batchnorm\/mul_2:0",
      "beta" : 0
    },
    {
      "bottom" : "",
      "k" : 512,
      "n" : 1,
      "weights" : {

      },
      "h" : 1,
      "debug_info" : "generator\/G_MODEL\/C\/r4\/LayerNorm\/beta\/read:0",
      "constant_blob" : 101,
      "top" : "generator\/G_MODEL\/C\/r4\/LayerNorm\/beta\/read:0",
      "w" : 1,
      "type" : "load_constant",
      "name" : "generator\/G_MODEL\/C\/r4\/LayerNorm\/beta\/read:0"
    },
    {
      "alpha" : -1,
      "bottom" : "generator\/G_MODEL\/C\/r4\/LayerNorm\/batchnorm\/mul_2:0",
      "weights" : {

      },
      "mode" : 6,
      "debug_info" : "negated_generator\/G_MODEL\/C\/r4\/LayerNorm\/batchnorm\/mul_2:0_generator\/G_MODEL\/C\/r4\/LayerNorm\/batchnorm\/sub:0",
      "top" : "negated_generator\/G_MODEL\/C\/r4\/LayerNorm\/batchnorm\/mul_2:0_generator\/G_MODEL\/C\/r4\/LayerNorm\/batchnorm\/sub:0",
      "type" : "activation",
      "name" : "negated_generator\/G_MODEL\/C\/r4\/LayerNorm\/batchnorm\/mul_2:0_generator\/G_MODEL\/C\/r4\/LayerNorm\/batchnorm\/sub:0",
      "beta" : 0
    },
    {
      "bottom" : "generator\/G_MODEL\/C\/r4\/LayerNorm\/beta\/read:0,negated_generator\/G_MODEL\/C\/r4\/LayerNorm\/batchnorm\/mul_2:0_generator\/G_MODEL\/C\/r4\/LayerNorm\/batchnorm\/sub:0",
      "alpha" : 1,
      "operation" : 0,
      "weights" : {

      },
      "fused_relu" : 0,
      "debug_info" : "generator\/G_MODEL\/C\/r4\/LayerNorm\/batchnorm\/sub:0",
      "top" : "generator\/G_MODEL\/C\/r4\/LayerNorm\/batchnorm\/sub:0",
      "type" : "elementwise",
      "name" : "generator\/G_MODEL\/C\/r4\/LayerNorm\/batchnorm\/sub:0",
      "beta" : 0
    },
    {
      "bottom" : "generator\/G_MODEL\/C\/r4\/LayerNorm\/batchnorm\/mul_1:0,generator\/G_MODEL\/C\/r4\/LayerNorm\/batchnorm\/sub:0",
      "alpha" : 1,
      "operation" : 0,
      "weights" : {

      },
      "fused_relu" : 0,
      "debug_info" : "generator\/G_MODEL\/C\/r4\/LayerNorm\/batchnorm\/add_1:0",
      "top" : "generator\/G_MODEL\/C\/r4\/LayerNorm\/batchnorm\/add_1:0",
      "type" : "elementwise",
      "name" : "generator\/G_MODEL\/C\/r4\/LayerNorm\/batchnorm\/add_1:0",
      "beta" : 0
    },
    {
      "bottom" : "generator\/G_MODEL\/C\/r4\/LayerNorm\/batchnorm\/add_1:0",
      "alpha" : 0.20000000298023224,
      "operation" : 1,
      "weights" : {

      },
      "fused_relu" : 0,
      "debug_info" : "generator\/G_MODEL\/C\/r4\/LeakyRelu\/mul:0",
      "top" : "generator\/G_MODEL\/C\/r4\/LeakyRelu\/mul:0",
      "type" : "elementwise",
      "name" : "generator\/G_MODEL\/C\/r4\/LeakyRelu\/mul:0",
      "beta" : 0
    },
    {
      "bottom" : "generator\/G_MODEL\/C\/r4\/LeakyRelu\/mul:0,generator\/G_MODEL\/C\/r4\/LayerNorm\/batchnorm\/add_1:0",
      "alpha" : 1,
      "operation" : 23,
      "weights" : {

      },
      "fused_relu" : 0,
      "debug_info" : "generator\/G_MODEL\/C\/r4\/LeakyRelu\/Maximum:0",
      "top" : "generator\/G_MODEL\/C\/r4\/LeakyRelu\/Maximum:0",
      "type" : "elementwise",
      "name" : "generator\/G_MODEL\/C\/r4\/LeakyRelu\/Maximum:0",
      "beta" : 0
    },
    {
      "name" : "generator\/G_MODEL\/C\/r4\/MirrorPad:0",
      "weights" : {

      },
      "pad_pad_mode" : 0,
      "pad_t" : 1,
      "pad_r" : 1,
      "pad_b" : 1,
      "type" : "general_padding",
      "pad_fill_mode" : 2,
      "bottom" : "generator\/G_MODEL\/C\/r4\/LeakyRelu\/Maximum:0",
      "pad_l" : 1,
      "debug_info" : "generator\/G_MODEL\/C\/r4\/MirrorPad:0",
      "pad_value" : 0,
      "top" : "generator\/G_MODEL\/C\/r4\/MirrorPad:0"
    },
    {
      "pad_r" : 0,
      "fused_relu" : 0,
      "fused_tanh" : 0,
      "debug_info" : "generator\/G_MODEL\/C\/r4\/r4\/r4:0",
      "pad_fill_mode" : 0,
      "pad_b" : 0,
      "pad_l" : 0,
      "top" : "generator\/G_MODEL\/C\/r4\/r4\/BiasAdd:0",
      "blob_weights" : 105,
      "K" : 512,
      "blob_biases" : 103,
      "name" : "generator\/G_MODEL\/C\/r4\/r4\/r4:0",
      "has_batch_norm" : 0,
      "type" : "convolution",
      "n_groups" : 512,
      "pad_t" : 0,
      "has_biases" : 1,
      "C" : 512,
      "bottom" : "generator\/G_MODEL\/C\/r4\/MirrorPad:0",
      "weights" : {

      },
      "Nx" : 3,
      "pad_mode" : 0,
      "pad_value" : 0,
      "Ny" : 3,
      "n_parallel" : 1
    },
    {
      "bottom" : "generator\/G_MODEL\/C\/r4\/r4\/BiasAdd:0",
      "weights" : {

      },
      "mode" : 1,
      "debug_info" : "generator\/G_MODEL\/C\/r4\/1\/moments\/mean:0",
      "use_version" : 1,
      "top" : "generator\/G_MODEL\/C\/r4\/1\/moments\/mean:0",
      "type" : "reduce",
      "name" : "generator\/G_MODEL\/C\/r4\/1\/moments\/mean:0"
    },
    {
      "alpha" : -1,
      "bottom" : "generator\/G_MODEL\/C\/r4\/1\/moments\/mean:0",
      "weights" : {

      },
      "mode" : 6,
      "debug_info" : "negated_generator\/G_MODEL\/C\/r4\/1\/moments\/StopGradient:0_generator\/G_MODEL\/C\/r4\/1\/moments\/SquaredDifference:0_difference",
      "top" : "negated_generator\/G_MODEL\/C\/r4\/1\/moments\/StopGradient:0_generator\/G_MODEL\/C\/r4\/1\/moments\/SquaredDifference:0_difference",
      "type" : "activation",
      "name" : "negated_generator\/G_MODEL\/C\/r4\/1\/moments\/StopGradient:0_generator\/G_MODEL\/C\/r4\/1\/moments\/SquaredDifference:0_difference",
      "beta" : 0
    },
    {
      "bottom" : "generator\/G_MODEL\/C\/r4\/r4\/BiasAdd:0,negated_generator\/G_MODEL\/C\/r4\/1\/moments\/StopGradient:0_generator\/G_MODEL\/C\/r4\/1\/moments\/SquaredDifference:0_difference",
…
      "debug_info" : "generator\/G_MODEL\/D\/MirrorPad:0",
      "pad_value" : 0,
      "top" : "generator\/G_MODEL\/D\/MirrorPad:0"
    },
    {
      "pad_r" : 0,
      "fused_relu" : 0,
      "fused_tanh" : 0,
      "debug_info" : "generator\/G_MODEL\/D\/Conv\/Conv2D:0",
      "pad_fill_mode" : 0,
      "pad_b" : 0,
      "pad_l" : 0,
      "top" : "generator\/G_MODEL\/D\/Conv\/Conv2D:0",
      "blob_weights" : 123,
      "K" : 128,
      "name" : "generator\/G_MODEL\/D\/Conv\/Conv2D:0",
      "has_batch_norm" : 0,
      "type" : "convolution",
      "n_groups" : 1,
      "pad_t" : 0,
      "has_biases" : 0,
      "C" : 128,
      "bottom" : "generator\/G_MODEL\/D\/MirrorPad:0",
      "weights" : {

      },
      "Nx" : 3,
      "pad_mode" : 0,
      "pad_value" : 0,
      "Ny" : 3,
      "n_parallel" : 1
    },
    {
      "bottom" : "generator\/G_MODEL\/D\/Conv\/Conv2D:0",
      "weights" : {

      },
      "mode" : 1,
      "debug_info" : "generator\/G_MODEL\/D\/LayerNorm\/moments\/mean:0",
      "use_version" : 1,
      "top" : "generator\/G_MODEL\/D\/LayerNorm\/moments\/mean:0",
      "type" : "reduce",
      "name" : "generator\/G_MODEL\/D\/LayerNorm\/moments\/mean:0"
    },
    {
      "alpha" : -1,
      "bottom" : "generator\/G_MODEL\/D\/LayerNorm\/moments\/mean:0",
      "weights" : {

      },
      "mode" : 6,
      "debug_info" : "negated_generator\/G_MODEL\/D\/LayerNorm\/moments\/StopGradient:0_generator\/G_MODEL\/D\/LayerNorm\/moments\/SquaredDifference:0_difference",
      "top" : "negated_generator\/G_MODEL\/D\/LayerNorm\/moments\/StopGradient:0_generator\/G_MODEL\/D\/LayerNorm\/moments\/SquaredDifference:0_difference",
      "type" : "activation",
      "name" : "negated_generator\/G_MODEL\/D\/LayerNorm\/moments\/StopGradient:0_generator\/G_MODEL\/D\/LayerNorm\/moments\/SquaredDifference:0_difference",
      "beta" : 0
    },
    {
      "bottom" : "generator\/G_MODEL\/D\/Conv\/Conv2D:0,negated_generator\/G_MODEL\/D\/LayerNorm\/moments\/StopGradient:0_generator\/G_MODEL\/D\/LayerNorm\/moments\/SquaredDifference:0_difference",
      "alpha" : 1,
      "operation" : 0,
      "weights" : {

      },
      "fused_relu" : 0,
      "debug_info" : "generator\/G_MODEL\/D\/LayerNorm\/moments\/SquaredDifference:0_difference",
      "top" : "generator\/G_MODEL\/D\/LayerNorm\/moments\/SquaredDifference:0_difference",
      "type" : "elementwise",
      "name" : "generator\/G_MODEL\/D\/LayerNorm\/moments\/SquaredDifference:0_difference",
      "beta" : 0
    },
    {
      "bottom" : "generator\/G_MODEL\/D\/LayerNorm\/moments\/SquaredDifference:0_difference,generator\/G_MODEL\/D\/LayerNorm\/moments\/SquaredDifference:0_difference",
      "alpha" : 1,
      "operation" : 1,
      "weights" : {

      },
      "fused_relu" : 0,
      "debug_info" : "generator\/G_MODEL\/D\/LayerNorm\/moments\/SquaredDifference:0",
      "top" : "generator\/G_MODEL\/D\/LayerNorm\/moments\/SquaredDifference:0",
      "type" : "elementwise",
      "name" : "generator\/G_MODEL\/D\/LayerNorm\/moments\/SquaredDifference:0",
      "beta" : 0
    },
    {
      "bottom" : "generator\/G_MODEL\/D\/LayerNorm\/moments\/SquaredDifference:0",
      "weights" : {

      },
      "mode" : 1,
      "debug_info" : "generator\/G_MODEL\/D\/LayerNorm\/moments\/variance:0",
      "use_version" : 1,
      "top" : "generator\/G_MODEL\/D\/LayerNorm\/moments\/variance:0",
      "type" : "reduce",
      "name" : "generator\/G_MODEL\/D\/LayerNorm\/moments\/variance:0"
    },
    {
      "bottom" : "generator\/G_MODEL\/D\/LayerNorm\/moments\/variance:0",
      "alpha" : 9.999999960041972e-13,
      "operation" : 0,
      "weights" : {

      },
      "fused_relu" : 0,
      "debug_info" : "generator\/G_MODEL\/D\/LayerNorm\/batchnorm\/add:0",
      "top" : "generator\/G_MODEL\/D\/LayerNorm\/batchnorm\/add:0",
      "type" : "elementwise",
      "name" : "generator\/G_MODEL\/D\/LayerNorm\/batchnorm\/add:0",
      "beta" : 0
    },
    {
      "bottom" : "generator\/G_MODEL\/D\/LayerNorm\/batchnorm\/add:0",
      "alpha" : 1,
      "operation" : 12,
      "weights" : {

      },
      "fused_relu" : 0,
      "debug_info" : "generator\/G_MODEL\/D\/LayerNorm\/batchnorm\/Rsqrt:0",
      "top" : "generator\/G_MODEL\/D\/LayerNorm\/batchnorm\/Rsqrt:0",
      "type" : "elementwise",
      "name" : "generator\/G_MODEL\/D\/LayerNorm\/batchnorm\/Rsqrt:0",
      "beta" : 0
    },
    {
      "bottom" : "",
      "k" : 128,
      "n" : 1,
      "weights" : {

      },
      "h" : 1,
      "debug_info" : "generator\/G_MODEL\/D\/LayerNorm\/gamma\/read:0",
      "constant_blob" : 125,
      "top" : "generator\/G_MODEL\/D\/LayerNorm\/gamma\/read:0",
      "w" : 1,
      "type" : "load_constant",
      "name" : "generator\/G_MODEL\/D\/LayerNorm\/gamma\/read:0"
    },
    {
      "bottom" : "generator\/G_MODEL\/D\/LayerNorm\/batchnorm\/Rsqrt:0,generator\/G_MODEL\/D\/LayerNorm\/gamma\/read:0",
      "alpha" : 1,
      "operation" : 1,
      "weights" : {

      },
      "fused_relu" : 0,
      "debug_info" : "generator\/G_MODEL\/D\/LayerNorm\/batchnorm\/mul:0",
      "top" : "generator\/G_MODEL\/D\/LayerNorm\/batchnorm\/mul:0",
      "type" : "elementwise",
      "name" : "generator\/G_MODEL\/D\/LayerNorm\/batchnorm\/mul:0",
      "beta" : 0
    },
    {
      "bottom" : "generator\/G_MODEL\/D\/Conv\/Conv2D:0,generator\/G_MODEL\/D\/LayerNorm\/batchnorm\/mul:0",
      "alpha" : 1,
      "operation" : 1,
      "weights" : {

      },
      "fused_relu" : 0,
      "debug_info" : "generator\/G_MODEL\/D\/LayerNorm\/batchnorm\/mul_1:0",
      "top" : "generator\/G_MODEL\/D\/LayerNorm\/batchnorm\/mul_1:0",
      "type" : "elementwise",
      "name" : "generator\/G_MODEL\/D\/LayerNorm\/batchnorm\/mul_1:0",
      "beta" : 0
    },
    {
      "bottom" : "generator\/G_MODEL\/D\/LayerNorm\/moments\/mean:0,generator\/G_MODEL\/D\/LayerNorm\/batchnorm\/mul:0",
      "alpha" : 1,
      "operation" : 1,
      "weights" : {

      },
      "fused_relu" : 0,
      "debug_info" : "generator\/G_MODEL\/D\/LayerNorm\/batchnorm\/mul_2:0",
      "top" : "generator\/G_MODEL\/D\/LayerNorm\/batchnorm\/mul_2:0",
      "type" : "elementwise",
      "name" : "generator\/G_MODEL\/D\/LayerNorm\/batchnorm\/mul_2:0",
      "beta" : 0
    },
    {
      "bottom" : "",
      "k" : 128,
      "n" : 1,
      "weights" : {

      },
      "h" : 1,
      "debug_info" : "generator\/G_MODEL\/D\/LayerNorm\/beta\/read:0",
      "constant_blob" : 127,
      "top" : "generator\/G_MODEL\/D\/LayerNorm\/beta\/read:0",
      "w" : 1,
      "type" : "load_constant",
      "name" : "generator\/G_MODEL\/D\/LayerNorm\/beta\/read:0"
    },
    {
      "alpha" : -1,
      "bottom" : "generator\/G_MODEL\/D\/LayerNorm\/batchnorm\/mul_2:0",
      "weights" : {

      },
      "mode" : 6,
      "debug_info" : "negated_generator\/G_MODEL\/D\/LayerNorm\/batchnorm\/mul_2:0_generator\/G_MODEL\/D\/LayerNorm\/batchnorm\/sub:0",
      "top" : "negated_generator\/G_MODEL\/D\/LayerNorm\/batchnorm\/mul_2:0_generator\/G_MODEL\/D\/LayerNorm\/batchnorm\/sub:0",
      "type" : "activation",
      "name" : "negated_generator\/G_MODEL\/D\/LayerNorm\/batchnorm\/mul_2:0_generator\/G_MODEL\/D\/LayerNorm\/batchnorm\/sub:0",
      "beta" : 0
    },
    {
      "bottom" : "generator\/G_MODEL\/D\/LayerNorm\/beta\/read:0,negated_generator\/G_MODEL\/D\/LayerNorm\/batchnorm\/mul_2:0_generator\/G_MODEL\/D\/LayerNorm\/batchnorm\/sub:0",
      "alpha" : 1,
      "operation" : 0,
      "weights" : {

      },
      "fused_relu" : 0,
      "debug_info" : "generator\/G_MODEL\/D\/LayerNorm\/batchnorm\/sub:0",
      "top" : "generator\/G_MODEL\/D\/LayerNorm\/batchnorm\/sub:0",
      "type" : "elementwise",
      "name" : "generator\/G_MODEL\/D\/LayerNorm\/batchnorm\/sub:0",
      "beta" : 0
    },
    {
      "bottom" : "generator\/G_MODEL\/D\/LayerNorm\/batchnorm\/mul_1:0,generator\/G_MODEL\/D\/LayerNorm\/batchnorm\/sub:0",
      "alpha" : 1,
      "operation" : 0,
      "weights" : {

      },
      "fused_relu" : 0,
      "debug_info" : "generator\/G_MODEL\/D\/LayerNorm\/batchnorm\/add_1:0",
      "top" : "generator\/G_MODEL\/D\/LayerNorm\/batchnorm\/add_1:0",
      "type" : "elementwise",
      "name" : "generator\/G_MODEL\/D\/LayerNorm\/batchnorm\/add_1:0",
      "beta" : 0
    },
    {
      "bottom" : "generator\/G_MODEL\/D\/LayerNorm\/batchnorm\/add_1:0",
      "alpha" : 0.20000000298023224,
      "operation" : 1,
      "weights" : {

      },
      "fused_relu" : 0,
      "debug_info" : "generator\/G_MODEL\/D\/LeakyRelu\/mul:0",
      "top" : "generator\/G_MODEL\/D\/LeakyRelu\/mul:0",
      "type" : "elementwise",
      "name" : "generator\/G_MODEL\/D\/LeakyRelu\/mul:0",
      "beta" : 0
    },
    {
      "bottom" : "generator\/G_MODEL\/D\/LeakyRelu\/mul:0,generator\/G_MODEL\/D\/LayerNorm\/batchnorm\/add_1:0",
      "alpha" : 1,
      "operation" : 23,
      "weights" : {

      },
      "fused_relu" : 0,
      "debug_info" : "generator\/G_MODEL\/D\/LeakyRelu\/Maximum:0",
      "top" : "generator\/G_MODEL\/D\/LeakyRelu\/Maximum:0",
      "type" : "elementwise",
      "name" : "generator\/G_MODEL\/D\/LeakyRelu\/Maximum:0",
      "beta" : 0
    },
    {
      "name" : "generator\/G_MODEL\/D\/MirrorPad_1:0",
      "weights" : {

      },
      "pad_pad_mode" : 0,
      "pad_t" : 1,
      "pad_r" : 1,
      "pad_b" : 1,
      "type" : "general_padding",
      "pad_fill_mode" : 2,
      "bottom" : "generator\/G_MODEL\/D\/LeakyRelu\/Maximum:0",
      "pad_l" : 1,
      "debug_info" : "generator\/G_MODEL\/D\/MirrorPad_1:0",
      "pad_value" : 0,
      "top" : "generator\/G_MODEL\/D\/MirrorPad_1:0"
    },
    {
      "pad_r" : 0,
      "fused_relu" : 0,
      "fused_tanh" : 0,
      "debug_info" : "generator\/G_MODEL\/D\/Conv_1\/Conv2D:0",
      "pad_fill_mode" : 0,
      "pad_b" : 0,
      "pad_l" : 0,
      "top" : "generator\/G_MODEL\/D\/Conv_1\/Conv2D:0",
      "blob_weights" : 129,
      "K" : 128,
      "name" : "generator\/G_MODEL\/D\/Conv_1\/Conv2D:0",
      "has_batch_norm" : 0,
      "type" : "convolution",
      "n_groups" : 1,
      "pad_t" : 0,
      "has_biases" : 0,
      "C" : 128,
      "bottom" : "generator\/G_MODEL\/D\/MirrorPad_1:0",
      "weights" : {

      },
      "Nx" : 3,
      "pad_mode" : 0,
      "pad_value" : 0,
      "Ny" : 3,
      "n_parallel" : 1
    },
    {
      "bottom" : "generator\/G_MODEL\/D\/Conv_1\/Conv2D:0",
      "weights" : {

      },
      "mode" : 1,
      "debug_info" : "generator\/G_MODEL\/D\/LayerNorm_1\/moments\/mean:0",
      "use_version" : 1,
      "top" : "generator\/G_MODEL\/D\/LayerNorm_1\/moments\/mean:0",
      "type" : "reduce",
      "name" : "generator\/G_MODEL\/D\/LayerNorm_1\/moments\/mean:0"
    },
    {
      "alpha" : -1,
      "bottom" : "generator\/G_MODEL\/D\/LayerNorm_1\/moments\/mean:0",
      "weights" : {

      },
      "mode" : 6,
      "debug_info" : "negated_generator\/G_MODEL\/D\/LayerNorm_1\/moments\/StopGradient:0_generator\/G_MODEL\/D\/LayerNorm_1\/moments\/SquaredDifference:0_difference",
      "top" : "negated_generator\/G_MODEL\/D\/LayerNorm_1\/moments\/StopGradient:0_generator\/G_MODEL\/D\/LayerNorm_1\/moments\/SquaredDifference:0_difference",
      "type" : "activation",
      "name" : "negated_generator\/G_MODEL\/D\/LayerNorm_1\/moments\/StopGradient:0_generator\/G_MODEL\/D\/LayerNorm_1\/moments\/SquaredDifference:0_difference",
      "beta" : 0
    },
    {
      "bottom" : "generator\/G_MODEL\/D\/Conv_1\/Conv2D:0,negated_generator\/G_MODEL\/D\/LayerNorm_1\/moments\/StopGradient:0_generator\/G_MODEL\/D\/LayerNorm_1\/moments\/SquaredDifference:0_difference",
      "alpha" : 1,
      "operation" : 0,
      "weights" : {

      },
      "fused_relu" : 0,
      "debug_info" : "generator\/G_MODEL\/D\/LayerNorm_1\/moments\/SquaredDifference:0_difference",
      "top" : "generator\/G_MODEL\/D\/LayerNorm_1\/moments\/SquaredDifference:0_difference",
      "type" : "elementwise",
      "name" : "generator\/G_MODEL\/D\/LayerNorm_1\/moments\/SquaredDifference:0_difference",
      "beta" : 0
    },
    {
      "bottom" : "generator\/G_MODEL\/D\/LayerNorm_1\/moments\/SquaredDifference:0_difference,generator\/G_MODEL\/D\/LayerNorm_1\/moments\/SquaredDifference:0_difference",
      "alpha" : 1,
      "operation" : 1,
      "weights" : {

      },
      "fused_relu" : 0,
      "debug_info" : "generator\/G_MODEL\/D\/LayerNorm_1\/moments\/SquaredDifference:0",
      "top" : "generator\/G_MODEL\/D\/LayerNorm_1\/moments\/SquaredDifference:0",
      "type" : "elementwise",
      "name" : "generator\/G_MODEL\/D\/LayerNorm_1\/moments\/SquaredDifference:0",
      "beta" : 0
    },
    {
      "bottom" : "generator\/G_MODEL\/D\/LayerNorm_1\/moments\/SquaredDifference:0",
      "weights" : {

      },
      "mode" : 1,
      "debug_info" : "generator\/G_MODEL\/D\/LayerNorm_1\/moments\/variance:0",
      "use_version" : 1,
      "top" : "generator\/G_MODEL\/D\/LayerNorm_1\/moments\/variance:0",
      "type" : "reduce",
      "name" : "generator\/G_MODEL\/D\/LayerNorm_1\/moments\/variance:0"
    },
    {
      "bottom" : "generator\/G_MODEL\/D\/LayerNorm_1\/moments\/variance:0",
      "alpha" : 9.999999960041972e-13,
      "operation" : 0,
      "weights" : {

      },
      "fused_relu" : 0,
      "debug_info" : "generator\/G_MODEL\/D\/LayerNorm_1\/batchnorm\/add:0",
      "top" : "generator\/G_MODEL\/D\/LayerNorm_1\/batchnorm\/add:0",
      "type" : "elementwise",
      "name" : "generator\/G_MODEL\/D\/LayerNorm_1\/batchnorm\/add:0",
      "beta" : 0
    },
    {
      "bottom" : "generator\/G_MODEL\/D\/LayerNorm_1\/batchnorm\/add:0",
      "alpha" : 1,
      "operation" : 12,
      "weights" : {

      },
      "fused_relu" : 0,
      "debug_info" : "generator\/G_MODEL\/D\/LayerNorm_1\/batchnorm\/Rsqrt:0",
      "top" : "generator\/G_MODEL\/D\/LayerNorm_1\/batchnorm\/Rsqrt:0",
      "type" : "elementwise",
      "name" : "generator\/G_MODEL\/D\/LayerNorm_1\/batchnorm\/Rsqrt:0",
      "beta" : 0
    },
    {
      "bottom" : "",
      "k" : 128,
      "n" : 1,
      "weights" : {

      },
      "h" : 1,
      "debug_info" : "generator\/G_MODEL\/D\/LayerNorm_1\/gamma\/read:0",
      "constant_blob" : 131,
      "top" : "generator\/G_MODEL\/D\/LayerNorm_1\/gamma\/read:0",
      "w" : 1,
      "type" : "load_constant",
      "name" : "generator\/G_MODEL\/D\/LayerNorm_1\/gamma\/read:0"
    },
    {
      "bottom" : "generator\/G_MODEL\/D\/LayerNorm_1\/batchnorm\/Rsqrt:0,generator\/G_MODEL\/D\/LayerNorm_1\/gamma\/read:0",
      "alpha" : 1,
      "operation" : 1,
      "weights" : {

      },
      "fused_relu" : 0,
      "debug_info" : "generator\/G_MODEL\/D\/LayerNorm_1\/batchnorm\/mul:0",
      "top" : "generator\/G_MODEL\/D\/LayerNorm_1\/batchnorm\/mul:0",
      "type" : "elementwise",
      "name" : "generator\/G_MODEL\/D\/LayerNorm_1\/batchnorm\/mul:0",
      "beta" : 0
    },
    {
      "bottom" : "generator\/G_MODEL\/D\/Conv_1\/Conv2D:0,generator\/G_MODEL\/D\/LayerNorm_1\/batchnorm\/mul:0",
      "alpha" : 1,
      "operation" : 1,
      "weights" : {

      },
      "fused_relu" : 0,
      "debug_info" : "generator\/G_MODEL\/D\/LayerNorm_1\/batchnorm\/mul_1:0",
      "top" : "generator\/G_MODEL\/D\/LayerNorm_1\/batchnorm\/mul_1:0",
      "type" : "elementwise",
      "name" : "generator\/G_MODEL\/D\/LayerNorm_1\/batchnorm\/mul_1:0",
      "beta" : 0
    },
    {
      "bottom" : "generator\/G_MODEL\/D\/LayerNorm_1\/moments\/mean:0,generator\/G_MODEL\/D\/LayerNorm_1\/batchnorm\/mul:0",
      "alpha" : 1,
      "operation" : 1,
      "weights" : {

      },
      "fused_relu" : 0,
      "debug_info" : "generator\/G_MODEL\/D\/LayerNorm_1\/batchnorm\/mul_2:0",
      "top" : "generator\/G_MODEL\/D\/LayerNorm_1\/batchnorm\/mul_2:0",
      "type" : "elementwise",
      "name" : "generator\/G_MODEL\/D\/LayerNorm_1\/batchnorm\/mul_2:0",
      "beta" : 0
    },
    {
      "bottom" : "",
      "k" : 128,
      "n" : 1,
      "weights" : {

      },
      "h" : 1,
      "debug_info" : "generator\/G_MODEL\/D\/LayerNorm_1\/beta\/read:0",
      "constant_blob" : 133,
      "top" : "generator\/G_MODEL\/D\/LayerNorm_1\/beta\/read:0",
      "w" : 1,
      "type" : "load_constant",
      "name" : "generator\/G_MODEL\/D\/LayerNorm_1\/beta\/read:0"
    },
    {
      "alpha" : -1,
      "bottom" : "generator\/G_MODEL\/D\/LayerNorm_1\/batchnorm\/mul_2:0",
      "weights" : {

      },
      "mode" : 6,
      "debug_info" : "negated_generator\/G_MODEL\/D\/LayerNorm_1\/batchnorm\/mul_2:0_generator\/G_MODEL\/D\/LayerNorm_1\/batchnorm\/sub:0",
      "top" : "negated_generator\/G_MODEL\/D\/LayerNorm_1\/batchnorm\/mul_2:0_generator\/G_MODEL\/D\/LayerNorm_1\/batchnorm\/sub:0",
      "type" : "activation",
      "name" : "negated_generator\/G_MODEL\/D\/LayerNorm_1\/batchnorm\/mul_2:0_generator\/G_MODEL\/D\/LayerNorm_1\/batchnorm\/sub:0",
      "beta" : 0
    },
    {
      "bottom" : "generator\/G_MODEL\/D\/LayerNorm_1\/beta\/read:0,negated_generator\/G_MODEL\/D\/LayerNorm_1\/batchnorm\/mul_2:0_generator\/G_MODEL\/D\/LayerNorm_1\/batchnorm\/sub:0",
      "alpha" : 1,
      "operation" : 0,
      "weights" : {

      },
      "fused_relu" : 0,
      "debug_info" : "generator\/G_MODEL\/D\/LayerNorm_1\/batchnorm\/sub:0",
      "top" : "generator\/G_MODEL\/D\/LayerNorm_1\/batchnorm\/sub:0",
      "type" : "elementwise",
      "name" : "generator\/G_MODEL\/D\/LayerNorm_1\/batchnorm\/sub:0",
      "beta" : 0
    },
    {
      "bottom" : "generator\/G_MODEL\/D\/LayerNorm_1\/batchnorm\/mul_1:0,generator\/G_MODEL\/D\/LayerNorm_1\/batchnorm\/sub:0",
      "alpha" : 1,
      "operation" : 0,
      "weights" : {

      },
      "fused_relu" : 0,
      "debug_info" : "generator\/G_MODEL\/D\/LayerNorm_1\/batchnorm\/add_1:0",
      "top" : "generator\/G_MODEL\/D\/LayerNorm_1\/batchnorm\/add_1:0",
      "type" : "elementwise",
      "name" : "generator\/G_MODEL\/D\/LayerNorm_1\/batchnorm\/add_1:0",
      "beta" : 0
    },
    {
      "bottom" : "generator\/G_MODEL\/D\/LayerNorm_1\/batchnorm\/add_1:0",
      "alpha" : 0.20000000298023224,
      "operation" : 1,
      "weights" : {

      },
      "fused_relu" : 0,
      "debug_info" : "generator\/G_MODEL\/D\/LeakyRelu_1\/mul:0",
      "top" : "generator\/G_MODEL\/D\/LeakyRelu_1\/mul:0",
      "type" : "elementwise",
      "name" : "generator\/G_MODEL\/D\/LeakyRelu_1\/mul:0",
      "beta" : 0
    },
    {
      "bottom" : "generator\/G_MODEL\/D\/LeakyRelu_1\/mul:0,generator\/G_MODEL\/D\/LayerNorm_1\/batchnorm\/add_1:0",
      "alpha" : 1,
      "operation" : 23,
      "weights" : {

      },
      "fused_relu" : 0,
      "debug_info" : "generator\/G_MODEL\/D\/LeakyRelu_1\/Maximum:0",
      "top" : "generator\/G_MODEL\/D\/LeakyRelu_1\/Maximum:0",
      "type" : "elementwise",
      "name" : "generator\/G_MODEL\/D\/LeakyRelu_1\/Maximum:0",
      "beta" : 0
    },
    {
      "top" : "generator\/G_MODEL\/E\/resize_images\/ResizeBilinear:0",
      "use_fractional_scale_factors" : false,
      "weights" : {

      },
      "fractional_scaling_factor_y" : 1,
      "type" : "upsample",
      "scaling_factor_x" : 2,
      "mode" : 1,
      "align_corners" : 0,
      "bottom" : "generator\/G_MODEL\/D\/LeakyRelu_1\/Maximum:0",
      "debug_info" : "generator\/G_MODEL\/E\/resize_images\/ResizeBilinear:0",
      "fractional_scaling_factor_x" : 1,
      "is_legacy_mode" : 1,
      "name" : "generator\/G_MODEL\/E\/resize_images\/ResizeBilinear:0",
      "scaling_factor_y" : 2
    },
    {
      "name" : "generator\/G_MODEL\/E\/MirrorPad:0",
      "weights" : {

      },
      "pad_pad_mode" : 0,
      "pad_t" : 1,
      "pad_r" : 1,
      "pad_b" : 1,
      "type" : "general_padding",
      "pad_fill_mode" : 2,
      "bottom" : "generator\/G_MODEL\/E\/resize_images\/ResizeBilinear:0",
      "pad_l" : 1,
      "debug_info" : "generator\/G_MODEL\/E\/MirrorPad:0",
      "pad_value" : 0,
      "top" : "generator\/G_MODEL\/E\/MirrorPad:0"
    },
    {
      "pad_r" : 0,
      "fused_relu" : 0,
      "fused_tanh" : 0,
      "debug_info" : "generator\/G_MODEL\/E\/Conv\/Conv2D:0",
      "pad_fill_mode" : 0,
      "pad_b" : 0,
      "pad_l" : 0,
      "top" : "generator\/G_MODEL\/E\/Conv\/Conv2D:0",
      "blob_weights" : 135,
      "K" : 128,
      "name" : "generator\/G_MODEL\/E\/Conv\/Conv2D:0",
      "has_batch_norm" : 0,
      "type" : "convolution",
      "n_groups" : 1,
      "pad_t" : 0,
      "has_biases" : 0,
      "C" : 64,
      "bottom" : "generator\/G_MODEL\/E\/MirrorPad:0",
      "weights" : {

      },
      "Nx" : 3,
      "pad_mode" : 0,
      "pad_value" : 0,
      "Ny" : 3,
      "n_parallel" : 1
    },
    {
      "bottom" : "generator\/G_MODEL\/E\/Conv\/Conv2D:0",
      "weights" : {

      },
      "mode" : 1,
      "debug_info" : "generator\/G_MODEL\/E\/LayerNorm\/moments\/mean:0",
      "use_version" : 1,
      "top" : "generator\/G_MODEL\/E\/LayerNorm\/moments\/mean:0",
      "type" : "reduce",
      "name" : "generator\/G_MODEL\/E\/LayerNorm\/moments\/mean:0"
    },
    {
      "alpha" : -1,
      "bottom" : "generator\/G_MODEL\/E\/LayerNorm\/moments\/mean:0",
      "weights" : {

      },
      "mode" : 6,
      "debug_info" : "negated_generator\/G_MODEL\/E\/LayerNorm\/moments\/StopGradient:0_generator\/G_MODEL\/E\/LayerNorm\/moments\/SquaredDifference:0_difference",
      "top" : "negated_generator\/G_MODEL\/E\/LayerNorm\/moments\/StopGradient:0_generator\/G_MODEL\/E\/LayerNorm\/moments\/SquaredDifference:0_difference",
      "type" : "activation",
      "name" : "negated_generator\/G_MODEL\/E\/LayerNorm\/moments\/StopGradient:0_generator\/G_MODEL\/E\/LayerNorm\/moments\/SquaredDifference:0_difference",
      "beta" : 0
    },
    {
      "bottom" : "generator\/G_MODEL\/E\/Conv\/Conv2D:0,negated_generator\/G_MODEL\/E\/LayerNorm\/moments\/StopGradient:0_generator\/G_MODEL\/E\/LayerNorm\/moments\/SquaredDifference:0_difference",
      "alpha" : 1,
      "operation" : 0,
      "weights" : {

      },
      "fused_relu" : 0,
      "debug_info" : "generator\/G_MODEL\/E\/LayerNorm\/moments\/SquaredDifference:0_difference",
      "top" : "generator\/G_MODEL\/E\/LayerNorm\/moments\/SquaredDifference:0_difference",
      "type" : "elementwise",
      "name" : "generator\/G_MODEL\/E\/LayerNorm\/moments\/SquaredDifference:0_difference",
      "beta" : 0
    },
    {
      "bottom" : "generator\/G_MODEL\/E\/LayerNorm\/moments\/SquaredDifference:0_difference,generator\/G_MODEL\/E\/LayerNorm\/moments\/SquaredDifference:0_difference",
      "alpha" : 1,
      "operation" : 1,
      "weights" : {

      },
      "fused_relu" : 0,
      "debug_info" : "generator\/G_MODEL\/E\/LayerNorm\/moments\/SquaredDifference:0",
      "top" : "generator\/G_MODEL\/E\/LayerNorm\/moments\/SquaredDifference:0",
      "type" : "elementwise",
      "name" : "generator\/G_MODEL\/E\/LayerNorm\/moments\/SquaredDifference:0",
      "beta" : 0
    },
    {
      "bottom" : "generator\/G_MODEL\/E\/LayerNorm\/moments\/SquaredDifference:0",
      "weights" : {

      },
      "mode" : 1,
      "debug_info" : "generator\/G_MODEL\/E\/LayerNorm\/moments\/variance:0",
      "use_version" : 1,
      "top" : "generator\/G_MODEL\/E\/LayerNorm\/moments\/variance:0",
      "type" : "reduce",
      "name" : "generator\/G_MODEL\/E\/LayerNorm\/moments\/variance:0"
    },
    {
      "bottom" : "generator\/G_MODEL\/E\/LayerNorm\/moments\/variance:0",
      "alpha" : 9.999999960041972e-13,
      "operation" : 0,
      "weights" : {

      },
      "fused_relu" : 0,
      "debug_info" : "generator\/G_MODEL\/E\/LayerNorm\/batchnorm\/add:0",
      "top" : "generator\/G_MODEL\/E\/LayerNorm\/batchnorm\/add:0",
      "type" : "elementwise",
      "name" : "generator\/G_MODEL\/E\/LayerNorm\/batchnorm\/add:0",
      "beta" : 0
    },
    {
      "bottom" : "generator\/G_MODEL\/E\/LayerNorm\/batchnorm\/add:0",
      "alpha" : 1,
      "operation" : 12,
      "weights" : {

      },
      "fused_relu" : 0,
      "debug_info" : "generator\/G_MODEL\/E\/LayerNorm\/batchnorm\/Rsqrt:0",
      "top" : "generator\/G_MODEL\/E\/LayerNorm\/batchnorm\/Rsqrt:0",
      "type" : "elementwise",
      "name" : "generator\/G_MODEL\/E\/LayerNorm\/batchnorm\/Rsqrt:0",
      "beta" : 0
    },
    {
      "bottom" : "",
      "k" : 64,
      "n" : 1,
      "weights" : {

      },
      "h" : 1,
      "debug_info" : "generator\/G_MODEL\/E\/LayerNorm\/gamma\/read:0",
      "constant_blob" : 137,
      "top" : "generator\/G_MODEL\/E\/LayerNorm\/gamma\/read:0",
      "w" : 1,
      "type" : "load_constant",
      "name" : "generator\/G_MODEL\/E\/LayerNorm\/gamma\/read:0"
    },
    {
      "bottom" : "generator\/G_MODEL\/E\/LayerNorm\/batchnorm\/Rsqrt:0,generator\/G_MODEL\/E\/LayerNorm\/gamma\/read:0",
      "alpha" : 1,
      "operation" : 1,
      "weights" : {

      },
      "fused_relu" : 0,
      "debug_info" : "generator\/G_MODEL\/E\/LayerNorm\/batchnorm\/mul:0",
      "top" : "generator\/G_MODEL\/E\/LayerNorm\/batchnorm\/mul:0",
      "type" : "elementwise",
      "name" : "generator\/G_MODEL\/E\/LayerNorm\/batchnorm\/mul:0",
      "beta" : 0
    },
    {
      "bottom" : "generator\/G_MODEL\/E\/Conv\/Conv2D:0,generator\/G_MODEL\/E\/LayerNorm\/batchnorm\/mul:0",
      "alpha" : 1,
      "operation" : 1,
      "weights" : {

      },
      "fused_relu" : 0,
      "debug_info" : "generator\/G_MODEL\/E\/LayerNorm\/batchnorm\/mul_1:0",
      "top" : "generator\/G_MODEL\/E\/LayerNorm\/batchnorm\/mul_1:0",
      "type" : "elementwise",
      "name" : "generator\/G_MODEL\/E\/LayerNorm\/batchnorm\/mul_1:0",
      "beta" : 0
    },
    {
      "bottom" : "generator\/G_MODEL\/E\/LayerNorm\/moments\/mean:0,generator\/G_MODEL\/E\/LayerNorm\/batchnorm\/mul:0",
      "alpha" : 1,
      "operation" : 1,
      "weights" : {

      },
      "fused_relu" : 0,
      "debug_info" : "generator\/G_MODEL\/E\/LayerNorm\/batchnorm\/mul_2:0",
      "top" : "generator\/G_MODEL\/E\/LayerNorm\/batchnorm\/mul_2:0",
      "type" : "elementwise",
      "name" : "generator\/G_MODEL\/E\/LayerNorm\/batchnorm\/mul_2:0",
      "beta" : 0
    },
    {
      "bottom" : "",
      "k" : 64,
      "n" : 1,
      "weights" : {

      },
      "h" : 1,
      "debug_info" : "generator\/G_MODEL\/E\/LayerNorm\/beta\/read:0",
      "constant_blob" : 139,
      "top" : "generator\/G_MODEL\/E\/LayerNorm\/beta\/read:0",
      "w" : 1,
      "type" : "load_constant",
      "name" : "generator\/G_MODEL\/E\/LayerNorm\/beta\/read:0"
    },
    {
      "alpha" : -1,
      "bottom" : "generator\/G_MODEL\/E\/LayerNorm\/batchnorm\/mul_2:0",
      "weights" : {

      },
      "mode" : 6,
      "debug_info" : "negated_generator\/G_MODEL\/E\/LayerNorm\/batchnorm\/mul_2:0_generator\/G_MODEL\/E\/LayerNorm\/batchnorm\/sub:0",
      "top" : "negated_generator\/G_MODEL\/E\/LayerNorm\/batchnorm\/mul_2:0_generator\/G_MODEL\/E\/LayerNorm\/batchnorm\/sub:0",
      "type" : "activation",
      "name" : "negated_generator\/G_MODEL\/E\/LayerNorm\/batchnorm\/mul_2:0_generator\/G_MODEL\/E\/LayerNorm\/batchnorm\/sub:0",
      "beta" : 0
    },
    {
      "bottom" : "generator\/G_MODEL\/E\/LayerNorm\/beta\/read:0,negated_generator\/G_MODEL\/E\/LayerNorm\/batchnorm\/mul_2:0_generator\/G_MODEL\/E\/LayerNorm\/batchnorm\/sub:0",
      "alpha" : 1,
      "operation" : 0,
      "weights" : {

      },
      "fused_relu" : 0,
      "debug_info" : "generator\/G_MODEL\/E\/LayerNorm\/batchnorm\/sub:0",
      "top" : "generator\/G_MODEL\/E\/LayerNorm\/batchnorm\/sub:0",
      "type" : "elementwise",
      "name" : "generator\/G_MODEL\/E\/LayerNorm\/batchnorm\/sub:0",
      "beta" : 0
    },
    {
      "bottom" : "generator\/G_MODEL\/E\/LayerNorm\/batchnorm\/mul_1:0,generator\/G_MODEL\/E\/LayerNorm\/batchnorm\/sub:0",
      "alpha" : 1,
      "operation" : 0,
      "weights" : {

      },
      "fused_relu" : 0,
      "debug_info" : "generator\/G_MODEL\/E\/LayerNorm\/batchnorm\/add_1:0",
      "top" : "generator\/G_MODEL\/E\/LayerNorm\/batchnorm\/add_1:0",
      "type" : "elementwise",
      "name" : "generator\/G_MODEL\/E\/LayerNorm\/batchnorm\/add_1:0",
      "beta" : 0
    },
    {
      "bottom" : "generator\/G_MODEL\/E\/LayerNorm\/batchnorm\/add_1:0",
      "alpha" : 0.20000000298023224,
      "operation" : 1,
      "weights" : {

      },
      "fused_relu" : 0,
      "debug_info" : "generator\/G_MODEL\/E\/LeakyRelu\/mul:0",
      "top" : "generator\/G_MODEL\/E\/LeakyRelu\/mul:0",
      "type" : "elementwise",
      "name" : "generator\/G_MODEL\/E\/LeakyRelu\/mul:0",
      "beta" : 0
    },
    {
      "bottom" : "generator\/G_MODEL\/E\/LeakyRelu\/mul:0,generator\/G_MODEL\/E\/LayerNorm\/batchnorm\/add_1:0",
      "alpha" : 1,
      "operation" : 23,
      "weights" : {

      },
      "fused_relu" : 0,
      "debug_info" : "generator\/G_MODEL\/E\/LeakyRelu\/Maximum:0",
      "top" : "generator\/G_MODEL\/E\/LeakyRelu\/Maximum:0",
      "type" : "elementwise",
      "name" : "generator\/G_MODEL\/E\/LeakyRelu\/Maximum:0",
      "beta" : 0
    },
    {
      "name" : "generator\/G_MODEL\/E\/MirrorPad_1:0",
      "weights" : {

      },
      "pad_pad_mode" : 0,
      "pad_t" : 1,
      "pad_r" : 1,
      "pad_b" : 1,
      "type" : "general_padding",
      "pad_fill_mode" : 2,
      "bottom" : "generator\/G_MODEL\/E\/LeakyRelu\/Maximum:0",
      "pad_l" : 1,
      "debug_info" : "generator\/G_MODEL\/E\/MirrorPad_1:0",
      "pad_value" : 0,
      "top" : "generator\/G_MODEL\/E\/MirrorPad_1:0"
    },
    {
      "pad_r" : 0,
      "fused_relu" : 0,
      "fused_tanh" : 0,
      "debug_info" : "generator\/G_MODEL\/E\/Conv_1\/Conv2D:0",
      "pad_fill_mode" : 0,
      "pad_b" : 0,
      "pad_l" : 0,
      "top" : "generator\/G_MODEL\/E\/Conv_1\/Conv2D:0",
      "blob_weights" : 141,
      "K" : 64,
      "name" : "generator\/G_MODEL\/E\/Conv_1\/Conv2D:0",
      "has_batch_norm" : 0,
      "type" : "convolution",
      "n_groups" : 1,
      "pad_t" : 0,
      "has_biases" : 0,
      "C" : 64,
      "bottom" : "generator\/G_MODEL\/E\/MirrorPad_1:0",
      "weights" : {

      },
      "Nx" : 3,
      "pad_mode" : 0,
      "pad_value" : 0,
      "Ny" : 3,
      "n_parallel" : 1
    },
    {
      "bottom" : "generator\/G_MODEL\/E\/Conv_1\/Conv2D:0",
      "weights" : {

      },
      "mode" : 1,
      "debug_info" : "generator\/G_MODEL\/E\/LayerNorm_1\/moments\/mean:0",
      "use_version" : 1,
      "top" : "generator\/G_MODEL\/E\/LayerNorm_1\/moments\/mean:0",
      "type" : "reduce",
      "name" : "generator\/G_MODEL\/E\/LayerNorm_1\/moments\/mean:0"
    },
    {
      "alpha" : -1,
      "bottom" : "generator\/G_MODEL\/E\/LayerNorm_1\/moments\/mean:0",
      "weights" : {

      },
      "mode" : 6,
      "debug_info" : "negated_generator\/G_MODEL\/E\/LayerNorm_1\/moments\/StopGradient:0_generator\/G_MODEL\/E\/LayerNorm_1\/moments\/SquaredDifference:0_difference",
      "top" : "negated_generator\/G_MODEL\/E\/LayerNorm_1\/moments\/StopGradient:0_generator\/G_MODEL\/E\/LayerNorm_1\/moments\/SquaredDifference:0_difference",
      "type" : "activation",
      "name" : "negated_generator\/G_MODEL\/E\/LayerNorm_1\/moments\/StopGradient:0_generator\/G_MODEL\/E\/LayerNorm_1\/moments\/SquaredDifference:0_difference",
      "beta" : 0
    },
    {
      "bottom" : "generator\/G_MODEL\/E\/Conv_1\/Conv2D:0,negated_generator\/G_MODEL\/E\/LayerNorm_1\/moments\/StopGradient:0_generator\/G_MODEL\/E\/LayerNorm_1\/moments\/SquaredDifference:0_difference",
      "alpha" : 1,
      "operation" : 0,
      "weights" : {

      },
      "fused_relu" : 0,
      "debug_info" : "generator\/G_MODEL\/E\/LayerNorm_1\/moments\/SquaredDifference:0_difference",
      "top" : "generator\/G_MODEL\/E\/LayerNorm_1\/moments\/SquaredDifference:0_difference",
      "type" : "elementwise",
      "name" : "generator\/G_MODEL\/E\/LayerNorm_1\/moments\/SquaredDifference:0_difference",
      "beta" : 0
    },
    {
      "bottom" : "generator\/G_MODEL\/E\/LayerNorm_1\/moments\/SquaredDifference:0_difference,generator\/G_MODEL\/E\/LayerNorm_1\/moments\/SquaredDifference:0_difference",
      "alpha" : 1,
      "operation" : 1,
      "weights" : {

      },
      "fused_relu" : 0,
      "debug_info" : "generator\/G_MODEL\/E\/LayerNorm_1\/moments\/SquaredDifference:0",
      "top" : "generator\/G_MODEL\/E\/LayerNorm_1\/moments\/SquaredDifference:0",
      "type" : "elementwise",
      "name" : "generator\/G_MODEL\/E\/LayerNorm_1\/moments\/SquaredDifference:0",
      "beta" : 0
    },
    {
      "bottom" : "generator\/G_MODEL\/E\/LayerNorm_1\/moments\/SquaredDifference:0",
      "weights" : {

      },
      "mode" : 1,
      "debug_info" : "generator\/G_MODEL\/E\/LayerNorm_1\/moments\/variance:0",
      "use_version" : 1,
      "top" : "generator\/G_MODEL\/E\/LayerNorm_1\/moments\/variance:0",
      "type" : "reduce",
      "name" : "generator\/G_MODEL\/E\/LayerNorm_1\/moments\/variance:0"
    },
    {
      "bottom" : "generator\/G_MODEL\/E\/LayerNorm_1\/moments\/variance:0",
      "alpha" : 9.999999960041972e-13,
      "operation" : 0,
      "weights" : {

      },
      "fused_relu" : 0,
      "debug_info" : "generator\/G_MODEL\/E\/LayerNorm_1\/batchnorm\/add:0",
      "top" : "generator\/G_MODEL\/E\/LayerNorm_1\/batchnorm\/add:0",
      "type" : "elementwise",
      "name" : "generator\/G_MODEL\/E\/LayerNorm_1\/batchnorm\/add:0",
      "beta" : 0
    },
    {
      "bottom" : "generator\/G_MODEL\/E\/LayerNorm_1\/batchnorm\/add:0",
      "alpha" : 1,
      "operation" : 12,
      "weights" : {

      },
      "fused_relu" : 0,
      "debug_info" : "generator\/G_MODEL\/E\/LayerNorm_1\/batchnorm\/Rsqrt:0",
      "top" : "generator\/G_MODEL\/E\/LayerNorm_1\/batchnorm\/Rsqrt:0",
      "type" : "elementwise",
      "name" : "generator\/G_MODEL\/E\/LayerNorm_1\/batchnorm\/Rsqrt:0",
      "beta" : 0
    },
    {
      "bottom" : "",
      "k" : 64,
      "n" : 1,
      "weights" : {

      },
      "h" : 1,
      "debug_info" : "generator\/G_MODEL\/E\/LayerNorm_1\/gamma\/read:0",
      "constant_blob" : 143,
      "top" : "generator\/G_MODEL\/E\/LayerNorm_1\/gamma\/read:0",
      "w" : 1,
      "type" : "load_constant",
      "name" : "generator\/G_MODEL\/E\/LayerNorm_1\/gamma\/read:0"
    },
    {
      "bottom" : "generator\/G_MODEL\/E\/LayerNorm_1\/batchnorm\/Rsqrt:0,generator\/G_MODEL\/E\/LayerNorm_1\/gamma\/read:0",
      "alpha" : 1,
      "operation" : 1,
      "weights" : {

      },
      "fused_relu" : 0,
      "debug_info" : "generator\/G_MODEL\/E\/LayerNorm_1\/batchnorm\/mul:0",
      "top" : "generator\/G_MODEL\/E\/LayerNorm_1\/batchnorm\/mul:0",
      "type" : "elementwise",
      "name" : "generator\/G_MODEL\/E\/LayerNorm_1\/batchnorm\/mul:0",
      "beta" : 0
    },
    {
      "bottom" : "generator\/G_MODEL\/E\/Conv_1\/Conv2D:0,generator\/G_MODEL\/E\/LayerNorm_1\/batchnorm\/mul:0",
      "alpha" : 1,
      "operation" : 1,
      "weights" : {

      },
      "fused_relu" : 0,
      "debug_info" : "generator\/G_MODEL\/E\/LayerNorm_1\/batchnorm\/mul_1:0",
      "top" : "generator\/G_MODEL\/E\/LayerNorm_1\/batchnorm\/mul_1:0",
      "type" : "elementwise",
      "name" : "generator\/G_MODEL\/E\/LayerNorm_1\/batchnorm\/mul_1:0",
      "beta" : 0
    },
    {
      "bottom" : "generator\/G_MODEL\/E\/LayerNorm_1\/moments\/mean:0,generator\/G_MODEL\/E\/LayerNorm_1\/batchnorm\/mul:0",
      "alpha" : 1,
      "operation" : 1,
      "weights" : {

      },
      "fused_relu" : 0,
      "debug_info" : "generator\/G_MODEL\/E\/LayerNorm_1\/batchnorm\/mul_2:0",
      "top" : "generator\/G_MODEL\/E\/LayerNorm_1\/batchnorm\/mul_2:0",
      "type" : "elementwise",
      "name" : "generator\/G_MODEL\/E\/LayerNorm_1\/batchnorm\/mul_2:0",
      "beta" : 0
    },
    {
      "bottom" : "",
      "k" : 64,
      "n" : 1,
      "weights" : {

      },
      "h" : 1,
      "debug_info" : "generator\/G_MODEL\/E\/LayerNorm_1\/beta\/read:0",
      "constant_blob" : 145,
      "top" : "generator\/G_MODEL\/E\/LayerNorm_1\/beta\/read:0",
      "w" : 1,
      "type" : "load_constant",
      "name" : "generator\/G_MODEL\/E\/LayerNorm_1\/beta\/read:0"
    },
    {
      "alpha" : -1,
      "bottom" : "generator\/G_MODEL\/E\/LayerNorm_1\/batchnorm\/mul_2:0",
      "weights" : {

      },
      "mode" : 6,
      "debug_info" : "negated_generator\/G_MODEL\/E\/LayerNorm_1\/batchnorm\/mul_2:0_generator\/G_MODEL\/E\/LayerNorm_1\/batchnorm\/sub:0",
      "top" : "negated_generator\/G_MODEL\/E\/LayerNorm_1\/batchnorm\/mul_2:0_generator\/G_MODEL\/E\/LayerNorm_1\/batchnorm\/sub:0",
      "type" : "activation",
      "name" : "negated_generator\/G_MODEL\/E\/LayerNorm_1\/batchnorm\/mul_2:0_generator\/G_MODEL\/E\/LayerNorm_1\/batchnorm\/sub:0",
      "beta" : 0
    },
    {
      "bottom" : "generator\/G_MODEL\/E\/LayerNorm_1\/beta\/read:0,negated_generator\/G_MODEL\/E\/LayerNorm_1\/batchnorm\/mul_2:0_generator\/G_MODEL\/E\/LayerNorm_1\/batchnorm\/sub:0",
      "alpha" : 1,
      "operation" : 0,
      "weights" : {

      },
      "fused_relu" : 0,
      "debug_info" : "generator\/G_MODEL\/E\/LayerNorm_1\/batchnorm\/sub:0",
      "top" : "generator\/G_MODEL\/E\/LayerNorm_1\/batchnorm\/sub:0",
      "type" : "elementwise",
      "name" : "generator\/G_MODEL\/E\/LayerNorm_1\/batchnorm\/sub:0",
      "beta" : 0
    },
    {
      "bottom" : "generator\/G_MODEL\/E\/LayerNorm_1\/batchnorm\/mul_1:0,generator\/G_MODEL\/E\/LayerNorm_1\/batchnorm\/sub:0",
      "alpha" : 1,
      "operation" : 0,
      "weights" : {

      },
      "fused_relu" : 0,
      "debug_info" : "generator\/G_MODEL\/E\/LayerNorm_1\/batchnorm\/add_1:0",
      "top" : "generator\/G_MODEL\/E\/LayerNorm_1\/batchnorm\/add_1:0",
      "type" : "elementwise",
      "name" : "generator\/G_MODEL\/E\/LayerNorm_1\/batchnorm\/add_1:0",
      "beta" : 0
    },
    {
      "bottom" : "generator\/G_MODEL\/E\/LayerNorm_1\/batchnorm\/add_1:0",
      "alpha" : 0.20000000298023224,
      "operation" : 1,
      "weights" : {

      },
      "fused_relu" : 0,
      "debug_info" : "generator\/G_MODEL\/E\/LeakyRelu_1\/mul:0",
      "top" : "generator\/G_MODEL\/E\/LeakyRelu_1\/mul:0",
      "type" : "elementwise",
      "name" : "generator\/G_MODEL\/E\/LeakyRelu_1\/mul:0",
      "beta" : 0
    },
    {
      "bottom" : "generator\/G_MODEL\/E\/LeakyRelu_1\/mul:0,generator\/G_MODEL\/E\/LayerNorm_1\/batchnorm\/add_1:0",
      "alpha" : 1,
      "operation" : 23,
      "weights" : {

      },
      "fused_relu" : 0,
      "debug_info" : "generator\/G_MODEL\/E\/LeakyRelu_1\/Maximum:0",
      "top" : "generator\/G_MODEL\/E\/LeakyRelu_1\/Maximum:0",
      "type" : "elementwise",
      "name" : "generator\/G_MODEL\/E\/LeakyRelu_1\/Maximum:0",
      "beta" : 0
    },
    {
      "name" : "generator\/G_MODEL\/E\/MirrorPad_2:0",
      "weights" : {

      },
      "pad_pad_mode" : 0,
      "pad_t" : 3,
      "pad_r" : 3,
      "pad_b" : 3,
      "type" : "general_padding",
      "pad_fill_mode" : 2,
      "bottom" : "generator\/G_MODEL\/E\/LeakyRelu_1\/Maximum:0",
      "pad_l" : 3,
      "debug_info" : "generator\/G_MODEL\/E\/MirrorPad_2:0",
      "pad_value" : 0,
      "top" : "generator\/G_MODEL\/E\/MirrorPad_2:0"
    },
    {
      "pad_r" : 0,
      "fused_relu" : 0,
      "fused_tanh" : 0,
      "debug_info" : "generator\/G_MODEL\/E\/Conv_2\/Conv2D:0",
      "pad_fill_mode" : 0,
      "pad_b" : 0,
      "pad_l" : 0,
      "top" : "generator\/G_MODEL\/E\/Conv_2\/Conv2D:0",
      "blob_weights" : 147,
      "K" : 64,
      "name" : "generator\/G_MODEL\/E\/Conv_2\/Conv2D:0",
      "has_batch_norm" : 0,
      "type" : "convolution",
      "n_groups" : 1,
      "pad_t" : 0,
      "has_biases" : 0,
      "C" : 32,
      "bottom" : "generator\/G_MODEL\/E\/MirrorPad_2:0",
      "weights" : {

      },
      "Nx" : 7,
      "pad_mode" : 0,
      "pad_value" : 0,
      "Ny" : 7,
      "n_parallel" : 1
    },
    {
      "bottom" : "generator\/G_MODEL\/E\/Conv_2\/Conv2D:0",
      "weights" : {

      },
      "mode" : 1,
      "debug_info" : "generator\/G_MODEL\/E\/LayerNorm_2\/moments\/mean:0",
      "use_version" : 1,
      "top" : "generator\/G_MODEL\/E\/LayerNorm_2\/moments\/mean:0",
      "type" : "reduce",
      "name" : "generator\/G_MODEL\/E\/LayerNorm_2\/moments\/mean:0"
    },
    {
      "alpha" : -1,
      "bottom" : "generator\/G_MODEL\/E\/LayerNorm_2\/moments\/mean:0",
      "weights" : {

      },
      "mode" : 6,
      "debug_info" : "negated_generator\/G_MODEL\/E\/LayerNorm_2\/moments\/StopGradient:0_generator\/G_MODEL\/E\/LayerNorm_2\/moments\/SquaredDifference:0_difference",
      "top" : "negated_generator\/G_MODEL\/E\/LayerNorm_2\/moments\/StopGradient:0_generator\/G_MODEL\/E\/LayerNorm_2\/moments\/SquaredDifference:0_difference",
      "type" : "activation",
      "name" : "negated_generator\/G_MODEL\/E\/LayerNorm_2\/moments\/StopGradient:0_generator\/G_MODEL\/E\/LayerNorm_2\/moments\/SquaredDifference:0_difference",
      "beta" : 0
    },
    {
      "bottom" : "generator\/G_MODEL\/E\/Conv_2\/Conv2D:0,negated_generator\/G_MODEL\/E\/LayerNorm_2\/moments\/StopGradient:0_generator\/G_MODEL\/E\/LayerNorm_2\/moments\/SquaredDifference:0_difference",
      "alpha" : 1,
      "operation" : 0,
      "weights" : {

      },
      "fused_relu" : 0,
      "debug_info" : "generator\/G_MODEL\/E\/LayerNorm_2\/moments\/SquaredDifference:0_difference",
      "top" : "generator\/G_MODEL\/E\/LayerNorm_2\/moments\/SquaredDifference:0_difference",
      "type" : "elementwise",
      "name" : "generator\/G_MODEL\/E\/LayerNorm_2\/moments\/SquaredDifference:0_difference",
      "beta" : 0
    },
    {
      "bottom" : "generator\/G_MODEL\/E\/LayerNorm_2\/moments\/SquaredDifference:0_difference,generator\/G_MODEL\/E\/LayerNorm_2\/moments\/SquaredDifference:0_difference",
      "alpha" : 1,
      "operation" : 1,
      "weights" : {

      },
      "fused_relu" : 0,
      "debug_info" : "generator\/G_MODEL\/E\/LayerNorm_2\/moments\/SquaredDifference:0",
      "top" : "generator\/G_MODEL\/E\/LayerNorm_2\/moments\/SquaredDifference:0",
      "type" : "elementwise",
      "name" : "generator\/G_MODEL\/E\/LayerNorm_2\/moments\/SquaredDifference:0",
      "beta" : 0
    },
    {
      "bottom" : "generator\/G_MODEL\/E\/LayerNorm_2\/moments\/SquaredDifference:0",
      "weights" : {

      },
      "mode" : 1,
      "debug_info" : "generator\/G_MODEL\/E\/LayerNorm_2\/moments\/variance:0",
      "use_version" : 1,
      "top" : "generator\/G_MODEL\/E\/LayerNorm_2\/moments\/variance:0",
      "type" : "reduce",
      "name" : "generator\/G_MODEL\/E\/LayerNorm_2\/moments\/variance:0"
    },
    {
      "bottom" : "generator\/G_MODEL\/E\/LayerNorm_2\/moments\/variance:0",
      "alpha" : 9.999999960041972e-13,
      "operation" : 0,
      "weights" : {

      },
      "fused_relu" : 0,
      "debug_info" : "generator\/G_MODEL\/E\/LayerNorm_2\/batchnorm\/add:0",
      "top" : "generator\/G_MODEL\/E\/LayerNorm_2\/batchnorm\/add:0",
      "type" : "elementwise",
      "name" : "generator\/G_MODEL\/E\/LayerNorm_2\/batchnorm\/add:0",
      "beta" : 0
    },
    {
      "bottom" : "generator\/G_MODEL\/E\/LayerNorm_2\/batchnorm\/add:0",
      "alpha" : 1,
      "operation" : 12,
      "weights" : {

      },
      "fused_relu" : 0,
      "debug_info" : "generator\/G_MODEL\/E\/LayerNorm_2\/batchnorm\/Rsqrt:0",
      "top" : "generator\/G_MODEL\/E\/LayerNorm_2\/batchnorm\/Rsqrt:0",
      "type" : "elementwise",
      "name" : "generator\/G_MODEL\/E\/LayerNorm_2\/batchnorm\/Rsqrt:0",
      "beta" : 0
    },
    {
      "bottom" : "",
      "k" : 32,
      "n" : 1,
      "weights" : {

      },
      "h" : 1,
      "debug_info" : "generator\/G_MODEL\/E\/LayerNorm_2\/gamma\/read:0",
      "constant_blob" : 149,
      "top" : "generator\/G_MODEL\/E\/LayerNorm_2\/gamma\/read:0",
      "w" : 1,
      "type" : "load_constant",
      "name" : "generator\/G_MODEL\/E\/LayerNorm_2\/gamma\/read:0"
    },
    {
      "bottom" : "generator\/G_MODEL\/E\/LayerNorm_2\/batchnorm\/Rsqrt:0,generator\/G_MODEL\/E\/LayerNorm_2\/gamma\/read:0",
      "alpha" : 1,
      "operation" : 1,
      "weights" : {

      },
      "fused_relu" : 0,
      "debug_info" : "generator\/G_MODEL\/E\/LayerNorm_2\/batchnorm\/mul:0",
      "top" : "generator\/G_MODEL\/E\/LayerNorm_2\/batchnorm\/mul:0",
      "type" : "elementwise",
      "name" : "generator\/G_MODEL\/E\/LayerNorm_2\/batchnorm\/mul:0",
      "beta" : 0
    },
    {
      "bottom" : "generator\/G_MODEL\/E\/Conv_2\/Conv2D:0,generator\/G_MODEL\/E\/LayerNorm_2\/batchnorm\/mul:0",
      "alpha" : 1,
      "operation" : 1,
      "weights" : {

      },
      "fused_relu" : 0,
      "debug_info" : "generator\/G_MODEL\/E\/LayerNorm_2\/batchnorm\/mul_1:0",
      "top" : "generator\/G_MODEL\/E\/LayerNorm_2\/batchnorm\/mul_1:0",
      "type" : "elementwise",
      "name" : "generator\/G_MODEL\/E\/LayerNorm_2\/batchnorm\/mul_1:0",
      "beta" : 0
    },
    {
      "bottom" : "generator\/G_MODEL\/E\/LayerNorm_2\/moments\/mean:0,generator\/G_MODEL\/E\/LayerNorm_2\/batchnorm\/mul:0",
      "alpha" : 1,
      "operation" : 1,
      "weights" : {

      },
      "fused_relu" : 0,
      "debug_info" : "generator\/G_MODEL\/E\/LayerNorm_2\/batchnorm\/mul_2:0",
      "top" : "generator\/G_MODEL\/E\/LayerNorm_2\/batchnorm\/mul_2:0",
      "type" : "elementwise",
      "name" : "generator\/G_MODEL\/E\/LayerNorm_2\/batchnorm\/mul_2:0",
      "beta" : 0
    },
    {
      "bottom" : "",
      "k" : 32,
      "n" : 1,
      "weights" : {

      },
      "h" : 1,
      "debug_info" : "generator\/G_MODEL\/E\/LayerNorm_2\/beta\/read:0",
      "constant_blob" : 151,
      "top" : "generator\/G_MODEL\/E\/LayerNorm_2\/beta\/read:0",
      "w" : 1,
      "type" : "load_constant",
      "name" : "generator\/G_MODEL\/E\/LayerNorm_2\/beta\/read:0"
    },
    {
      "alpha" : -1,
      "bottom" : "generator\/G_MODEL\/E\/LayerNorm_2\/batchnorm\/mul_2:0",
      "weights" : {

      },
      "mode" : 6,
      "debug_info" : "negated_generator\/G_MODEL\/E\/LayerNorm_2\/batchnorm\/mul_2:0_generator\/G_MODEL\/E\/LayerNorm_2\/batchnorm\/sub:0",
      "top" : "negated_generator\/G_MODEL\/E\/LayerNorm_2\/batchnorm\/mul_2:0_generator\/G_MODEL\/E\/LayerNorm_2\/batchnorm\/sub:0",
      "type" : "activation",
      "name" : "negated_generator\/G_MODEL\/E\/LayerNorm_2\/batchnorm\/mul_2:0_generator\/G_MODEL\/E\/LayerNorm_2\/batchnorm\/sub:0",
      "beta" : 0
    },
    {
      "bottom" : "generator\/G_MODEL\/E\/LayerNorm_2\/beta\/read:0,negated_generator\/G_MODEL\/E\/LayerNorm_2\/batchnorm\/mul_2:0_generator\/G_MODEL\/E\/LayerNorm_2\/batchnorm\/sub:0",
      "alpha" : 1,
      "operation" : 0,
      "weights" : {

      },
      "fused_relu" : 0,
      "debug_info" : "generator\/G_MODEL\/E\/LayerNorm_2\/batchnorm\/sub:0",
      "top" : "generator\/G_MODEL\/E\/LayerNorm_2\/batchnorm\/sub:0",
      "type" : "elementwise",
      "name" : "generator\/G_MODEL\/E\/LayerNorm_2\/batchnorm\/sub:0",
      "beta" : 0
    },
    {
      "bottom" : "generator\/G_MODEL\/E\/LayerNorm_2\/batchnorm\/mul_1:0,generator\/G_MODEL\/E\/LayerNorm_2\/batchnorm\/sub:0",
      "alpha" : 1,
      "operation" : 0,
      "weights" : {

      },
      "fused_relu" : 0,
      "debug_info" : "generator\/G_MODEL\/E\/LayerNorm_2\/batchnorm\/add_1:0",
      "top" : "generator\/G_MODEL\/E\/LayerNorm_2\/batchnorm\/add_1:0",
      "type" : "elementwise",
      "name" : "generator\/G_MODEL\/E\/LayerNorm_2\/batchnorm\/add_1:0",
      "beta" : 0
    },
    {
      "bottom" : "generator\/G_MODEL\/E\/LayerNorm_2\/batchnorm\/add_1:0",
      "alpha" : 0.20000000298023224,
      "operation" : 1,
      "weights" : {

      },
      "fused_relu" : 0,
      "debug_info" : "generator\/G_MODEL\/E\/LeakyRelu_2\/mul:0",
      "top" : "generator\/G_MODEL\/E\/LeakyRelu_2\/mul:0",
      "type" : "elementwise",
      "name" : "generator\/G_MODEL\/E\/LeakyRelu_2\/mul:0",
      "beta" : 0
    },
    {
      "bottom" : "generator\/G_MODEL\/E\/LeakyRelu_2\/mul:0,generator\/G_MODEL\/E\/LayerNorm_2\/batchnorm\/add_1:0",
      "alpha" : 1,
      "operation" : 23,
      "weights" : {

      },
      "fused_relu" : 0,
      "debug_info" : "generator\/G_MODEL\/E\/LeakyRelu_2\/Maximum:0",
      "top" : "generator\/G_MODEL\/E\/LeakyRelu_2\/Maximum:0",
      "type" : "elementwise",
      "name" : "generator\/G_MODEL\/E\/LeakyRelu_2\/Maximum:0",
      "beta" : 0
    },
    {
      "pad_r" : 0,
      "fused_relu" : 0,
      "fused_tanh" : 1,
      "debug_info" : "generator\/G_MODEL\/out_layer\/Conv\/Conv2D:0",
      "pad_fill_mode" : 0,
      "pad_b" : 0,
      "pad_l" : 0,
      "top" : "generator__G_MODEL__out_layer__Tanh__0",
      "blob_weights" : 153,
      "K" : 32,
      "name" : "generator\/G_MODEL\/out_layer\/Conv\/Conv2D:0",
      "has_batch_norm" : 0,
      "type" : "convolution",
      "n_groups" : 1,
      "pad_t" : 0,
      "has_biases" : 0,
      "C" : 3,
      "bottom" : "generator\/G_MODEL\/E\/LeakyRelu_2\/Maximum:0",
      "weights" : {

      },
      "Nx" : 1,
      "pad_mode" : 0,
      "pad_value" : 0,
      "Ny" : 1,
      "n_parallel" : 1
    },
    {
      "size_of_axes" : 0,
      "bottom" : "generator__G_MODEL__out_layer__Tanh__0",
      "weights" : {

      },
      "nd_axis" : 0,
      "debug_info" : "squeeze",
      "version" : 1,
      "top" : "squeeze_out",
      "type" : "squeeze",
      "name" : "squeeze",
      "squeeze_all" : true
    },
    {
      "bottom" : "squeeze_out",
      "alpha" : 127.5,
      "beta" : 127.5,
      "mode" : 6,
      "weights" : {

      },
      "debug_info" : "activation",
      "top" : "image",
      "type" : "activation",
      "name" : "activation",
      "attributes" : {
        "is_output" : 1
      }
    }
  ],
  "transform_params" : {
    "test__0" : {
      "bias_a" : 0,
      "bias_g" : -1,
      "bias_r" : -1,
      "bias_b" : -1,
      "center_mean" : 0,
      "is_network_bgr" : 0,
      "scale" : 0.0078431377187371254
    }
  },
  "storage" : "model.espresso.weights",
  "metadata_in_weights" : [

  ],
  "properties" : {

  },
  "analyses" : {

  },
  "format_version" : 200
}